har_cnn/har_cnn_m123.tflite (tflite, 9892 bytes, 6 tensors)

sequential/conv1/Conv2D/ReadVariableOp f4 [1, 5, 5, 5]
0.061805233 0.16797274 0.06984725 0.18718599 0.11090743 0.2582157 0.08218987 0.18454584
0.1467142 -0.13967979 -0.09398808 0.1492723 0.15946846 -0.009692512 -0.08927881 0.0649447
-0.1832427 -0.041302495 0.010368074 0.06541052 0.122050785 -0.26165357 0.10831919 0.10830368
0.1506537 -0.29085192 0.11009222 0.15814973 0.02335344 -0.22277486 -0.15033534 0.03795824
0.22607917 0.019262921 -0.15367176 -0.160848 -0.050796963 0.12995356 -0.097073086 0.24989544
-0.08870086 0.15010701 0.06077959 -0.047208916 0.07063611 -0.22859807 -0.19130115 -0.1292408
-0.055938855 0.057165235 -0.1478497 0.23268378 0.0854291 0.08977262 0.09807426 0.006659317
0.21475893 0.19477831 0.13397042 -0.05305709 -0.06277619 0.13816315 -0.17842741 -0.106926434
0.16184945 -0.07841975 -0.1638716 0.0015914559 0.034003343 0.18889648 0.011646354 -0.22434098
0.09574295 -0.16189006 -0.13039666 0.15035343 0.18319048 0.11228792 0.26155686 0.13697678
0.18250781 -0.010676258 -0.19812438 0.06641929 -0.16465741 0.20484143 0.13043849 -0.03501278
0.30809736 -0.16373722 0.088197544 -0.078073576 -0.12438075 0.3272541 0.10124575 0.082593255
-0.104197636 -0.1690387 0.07437676 -0.043788884 0.15252179 0.09375037 -0.09597269 -0.0047841626
0.13234825 0.043590456 0.00018953547 0.1397013 -0.15492831 0.032375 -0.08206698 0.05108756
-0.14194395 0.038659368 0.084030606 0.002221551 -0.07014808 -0.18240014 -0.26116294 0.22442974
0.13955629 0.1911787 0.07504648 -0.12486173 -0.16115977
00000000: 7c27 7d3d 0c01 2c3e 130c 8f3d afad 3f3e
00000010: 6f23 e33d d934 843e 2a53 a83d 96f9 3c3e
00000020: 3f3c 163e 3808 0fbe d37c c0bd d6da 183e
00000030: b34b 233e 58cd 1ebc cfd7 b6bd ba01 853d
00000040: f9a3 3bbe ce2c 29bd dbde 293c f3f5 853d
00000050: c3f5 f93d 75f7 85be 74d6 dd3d 52ce dd3d
00000060: f744 1a3e 8bea 94be 0878 e13d 01f2 213e
00000070: b74f bf3c 181f 64be 82f1 19be 197a 1b3d
00000080: 4c81 673e 46cd 9d3c 215c 1dbe 57b5 24be
00000090: 7a10 50bd 8c12 053e 41ce c6bd 97e4 7f3e
000000a0: cca8 b5bd a7b5 193e 05f4 783d 235e 41bd
000000b0: aaa9 903d 9d15 6abe 73e4 43be b357 04be
000000c0: 2420 65bd 1826 6a3d e965 17be a844 6e3e
000000d0: 74f5 ae3d b5da b73d 28db c83d 6636 da3b
000000e0: c4e9 5b3e f773 473e 8b2f 093e 6452 59bd
000000f0: ce90 80bd a47a 0d3e adb5 36be 3ffc dabd
00000100: ddbb 253e 899a a0bd f5cd 27be 6698 d03a
00000110: 1747 0b3d 146e 413e 59d0 3e3c a4b9 65be
00000120: e114 c43d 82c6 25be b486 05be 40f6 193e
00000130: 4996 3b3e 36f7 e53d c8ea 853e a443 0c3e
00000140: 54e3 3a3e 79eb 2ebc 1ee1 4abe d606 883d
00000150: f49b 28be f4c1 513e ab91 053e 9069 0fbd
00000160: f0be 9d3e bbaa 27be eaa0 b43d 0ae5 9fbd
00000170: 56bb febd d98d a73e ef59 cf3d a726 a93d
00000180: 9265 d5bd 7b18 2dbe d852 983d f95b 33bd
00000190: ac2e 1c3e 3200 c03d 548d c4bd 77c4 9cbb
000001a0: 4d86 073e e88b 323d 0abe 4639 dc0d 0f3e
000001b0: 87a5 1ebe a69b 043d bc12 a8bd 3041 513d
000001c0: c159 11be 4959 1e3d 3d18 ac3d 7197 113b
000001d0: cca9 8fbd 1ac7 3abe 26b7 85be e9d0 653e
000001e0: d8e7 0e3e 59c4 433e f8b1 993d 82b7 ffbd
000001f0: 1107 25be

sequential/conv1/Conv2D_bias f4 [5]
0.21869457 -0.001208155 0.1687903 -0.063685894 0.015505917
00000000: 78f1 5f3e f45a 9eba 5dd7 2c3e c06d 82bd
00000010: 880c 7e3c

sequential/conv2/Conv2D/ReadVariableOp f4 [10, 5, 5, 5]
-0.047528967 -0.06454981 0.042024486 -0.04105713 0.06951302 0.06368052 0.07363019 0.05361905
0.06465396 0.03100022 0.046428643 0.0011541155 -0.07830021 -0.059604894 -0.05028386 -0.008514098
0.03617858 0.06759384 -0.00044688847 -0.08669656 0.06420374 -0.03699612 -0.0180353 -0.04923524
-0.023423493 0.113531746 0.07842854 0.010095403 0.007910784 -0.035624303 0.017800998 -0.0671082
0.097221665 -0.0038727266 -0.020529212 0.14475234 0.024755577 0.0654865 0.07719676 -0.004639771
0.07337936 0.081359036 -0.09450034 0.05996819 0.014455993 0.13076636 0.0174015 0.033504263
-0.0405059 0.058383178 0.0064339223 -0.03229587 -0.029572481 0.034600127 0.087712474 -0.05425663
-0.03927757 -0.033113755 0.0637534 -0.05593054 0.05785778 0.060103223 -0.08524315 0.013370624
-0.005293008 -0.08202291 0.007068106 0.052954074 0.07962913 0.016302802 -0.049104024 0.011675335
-0.060126774 -0.03793139 0.05856282 0.046435222 0.10628861 0.024941057 0.11409981 0.099274114
0.049962964 0.11312406 -0.033890914 0.1371196 -0.008101594 0.08655608 -0.08048838 -0.08956124
0.11697373 0.017572042 0.064603254 0.10460838 -0.060578506 0.12003116 -0.016696863 0.04822956
0.09161479 -0.06771689 0.09009217 -0.05931297 -0.09064877 -0.013589179 0.03792211 0.0042184503
-0.0006055503 -0.1052555 0.08774811 -0.12492947 -0.02429288 0.060396466 -0.07277192 0.011857402
0.028468313 -0.01313321 0.016596153 -0.048480242 0.044255946 0.03382418 0.015775055 -0.10631193
-0.07132001 0.08578753 -0.040734086 0.050877463 -0.08356929 0.05594121 0.046368316 -0.008301505
-0.029523345 0.054577693 -0.00813056 -0.06786042 -0.03222632 0.045842484 0.030403145 -0.06712324
0.022831138 -0.0672327 -0.09473704 0.07023982 0.05193533 -0.03524362 0.00012418625 0.0075152
-0.09949329 0.07455524 0.0023413147 0.016486673 0.09297412 -0.033129998 0.077802606 0.07489959
0.047727786 -0.040851466 0.07276047 -0.07339837 -0.03397909 0.09977261 -0.0668334 0.024569679
-0.0032780424 -0.023607185 -0.046867 -0.0035682656 -0.045107454 -0.09911042 -0.073831454 -0.06716396
0.03200523 -0.040910833 0.028408796 0.017175658 -0.04351135 -0.015185638 0.086306214 0.071586184
0.048941858 0.08557014 0.076578096 0.06791516 0.043431863 0.0117572555 0.030823257 -0.000408408
0.027799573 -0.09180265 -0.07894902 0.010170981 -0.08779198 0.04648776 -0.081680305 -0.05270144
0.056193266 -0.057414584 0.02739692 0.015125982 -0.06069402 -0.042736396 -0.021633346 -0.013411646
-0.050028536 0.035959613 -0.058508582 0.0035111965 -0.03417266 -0.01536874 -0.0075191623 -0.041206427
0.024565464 0.07342885 -0.015845897 0.051204234 0.030280417 -0.06365659 0.0404469 0.025528139
0.06902218 -0.048387732 0.08843783 0.05676051 0.011765682 -0.09089339 -0.08146606 -0.0037128946
-0.08043944 -0.055221014 0.021334995 0.042674676 -0.04916705 -0.026632162 -0.020998867 0.066191114
0.041083444 -0.05255061 -0.0822813 0.04219815 -0.08668344 -0.01679794 0.065032184 -0.044648018
-0.06588088 0.06940897 0.020086065 -0.011105798 0.050379127 -0.02729614 0.07103664 0.05215964
-0.064490065 0.01211203 -0.019758632 -0.08922629 0.07873408 0.01478432 0.07049752 -0.00900113
00000000: bcad 42bd b132 84bd de21 2c3d 852b 28bd
00000010: d85c 8e3d ef6a 823d 6dcb 963d a69f 5b3d
00000020: 4c69 843d 2cf4 fd3c f62b 3e3d b145 973a
00000030: dc5b a0bd 4324 74bd 73f6 4dbd b77e 0bbc
00000040: fe2f 143d a46e 8a3d 5b4c eab9 f78d b1bd
00000050: 407d 833d 3e89 17bd c4be 93bc e4aa 49bd
00000060: a0e2 bfbc 5583 e83d 249f a03d 3067 253c
00000070: 3c9c 013c caea 11bd 66d3 913c 0670 89bd
00000080: 271c c73d 92cd 7dbb e12c a8bc f539 143e
00000090: 35cc ca3c c91d 863d 5619 9e3d 3809 98bb
000000a0: eb47 963d 919f a63d 6589 c1bd 34a1 753d
000000b0: d4d8 6c3c 9ee7 053e 978d 8e3c c43b 093d
000000c0: 84e9 25bd 3323 6f3d a7d3 d23b ad48 04bd
000000d0: fd41 f2bc ddb8 0d3d 99a2 b33d 333c 5ebd
000000e0: 84e1 20bd 4aa2 07bd 2591 823d 6c17 65bd
000000f0: 48fc 6c3d cc2e 763d f693 aebd 7610 5b3c
00000100: f870 adbb a1fb a7bd 929b e73b 5fe6 583d
00000110: 9914 a33d 748d 853c 4d21 49bd e749 3f3c
00000120: 7e47 76bd f25d 1bbd 91df 6f3d dc32 3e3d
00000130: d8ad d93d 3051 cc3c 29ad e93d 3a50 cb3d
00000140: f7a5 4c3d 96ad e73d 33d1 0abd 1569 0c3e
00000150: 8cbc 04bc 5044 b13d 17d7 a4bd e26b b7bd
00000160: ec8f ef3d 3ef3 8f3c b64e 843d eb3c d63d
00000170: 2b21 78bd e6d2 f53d dcc7 88bc 5c8c 453d
00000180: 89a0 bb3d 27af 8abd 3e82 b83d 28f2 72bd
00000190: 10a6 b9bd 26a5 5ebc 3754 1b3d ed3a 8a3b
000001a0: cbbd 1eba 3290 d7bd 48b5 b33d 06db ffbd
000001b0: dd01 c7bc 4962 773d 7209 95bd 8c45 423c
000001c0: 6136 e93c ad2c 57bc a8f4 873c 3893 46bd
000001d0: b945 353d 398b 0a3d b03a 813c 12ba d9bd
000001e0: 3a10 92bd 5fb1 af3d c9d8 26bd e364 503d
000001f0: 6026 abbd 9c22 653d b4ec 3d3d 0903 08bc
00000200: f1da f1bc dc8c 5f3d 0a36 05bc 67fa 8abd
00000210: bfff 03bd 54c5 3b3d 0410 f93c e977 89bd
00000220: 5e08 bb3c 4cb1 89bd 7e05 c2bd e5d9 8f3d
00000230: 24ba 543d 9d5b 10bd fe37 0239 1142 f63b
00000240: 23c3 cbbd 6bb0 983d be70 193b 0f0f 873c
00000250: 3769 be3d 52b3 07bd f956 9f3d f564 993d
00000260: 367e 433d de53 27bd 7103 953d e251 96bd
00000270: a92d 0bbd 9555 cc3d f3df 88bd 5a46 c93c
00000280: 6dd4 56bb db63 c1bc 9df7 3fbd 90d9 69bb
00000290: 98c2 38bd 67fa cabd f234 97bd 428d 89bd
000002a0: eb17 033d 1e92 27bd 90b9 e83c f7b3 8c3c
000002b0: f538 32bd 2fcd 78bc 50c1 b03d c79b 923d
000002c0: 4277 483d 663f af3d fad4 9c3d 1a17 8b3d
000002d0: 9ce5 313d 81a1 403c 0e81 fc3c 981f d6b9
000002e0: eebb e33c 0703 bcbd 06b0 a1bd 30a4 263c
000002f0: 48cc b3bd f369 3e3d 0148 a7bd 77dd 57bd
00000300: e92a 663d 8e2b 6bbd 816f e03c f8d2 773c
00000310: 4b9a 78bd 5c0c 2fbd 6a38 b1bc 85bc 5bbc
00000320: b9ea 4cbd 634a 133d b2a6 6fbd 1a1c 663b
00000330: a2f8 0bbd 2bcd 7bbc 4e63 f6bb 12c8 28bd
00000340: 833d c93c dd61 963d 41cf 81bc 88bb 513d
00000350: a30e f83c 635e 82bd a6ab 253d 6320 d13c
00000360: 805b 8d3d 3732 46bd e51e b53d b57d 683d
00000370: d9c4 403c 5026 babd add7 a6bd 0954 73bb
00000380: 6fbd a4bd 6e2f 62bd bac6 ae3c a4cb 2e3d
00000390: 6363 49bd b12b dabc d105 acbc 358f 873d
000003a0: 1d47 283d 4f3f 57bd 1983 a8bd f8d7 2c3d
000003b0: 1687 b1bd d59b 89bc 982f 853d d7e0 36bd
000003c0: 8eec 86bd 4a26 8e3d 888b a43c 18f5 35bc
000003d0: 585a 4e3d 289c dfbc a87b 913d 59a5 553d
000003e0: 5e13 84bd 8971 463c dbdc a1bc 46bc b6bd
000003f0: 553f a13d ef39 723c 0161 903d 7a79 13bc

sequential/conv2/Conv2D_bias f4 [10]
0.017574217 -0.042829 0.046647124 0.041861217 -0.09529742 0.05092229 0.0068690423 0.11326065
0.0494945 0.029788896
00000000: cef7 8f3c 766d 2fbd 0e11 3f3d ab76 2b3d
00000010: 4b2b c3bd e493 503d b415 e13b 33f5 e73d
00000020: bfba 4a3d d807 f43c

sequential/features/Conv2D/ReadVariableOp f4 [6, 3, 3, 10]
-0.016720422 0.105114534 0.08713606 0.005284896 0.0973521 0.021477265 -0.011495926 -0.043712325
0.04757742 0.06728207 -0.08235907 -0.015013398 -0.0033928691 0.020524807 -0.07171301 0.012083322
-6.6867564e-05 0.08693712 -0.072253495 0.037043225 0.09443962 -0.06363773 0.10018299 -0.049633075
-0.050219096 -0.104058675 -0.01133201 0.009332478 -0.036680765 0.046052232 -0.012697232 -0.020961326
0.029556677 0.1257672 0.02029533 -0.036699057 -0.02701274 0.0807634 0.0690459 0.16530527
-0.06718396 -0.032065433 0.103219114 -0.031097714 -0.047998697 -0.12009782 -0.033035576 -0.06755055
0.02476927 0.11068234 -0.05313546 0.09771271 -0.06844204 0.11624882 -0.010488335 -0.13670984
0.0061797234 -0.048687898 -0.007532473 0.1406063 -0.10029008 0.030707678 0.05179007 -0.054569565
0.050512936 -0.056809388 0.021525914 -0.00076445425 0.06523302 0.14178513 0.06436588 0.058249887
-0.0393078 -0.045029048 -0.059264775 -0.11221795 -0.058911126 -0.04817798 -0.08118178 0.11717048
0.057495847 -0.004019444 -0.04016184 0.10731451 -0.067511335 -0.08406851 0.114974074 0.07017886
2.993155e-05 0.07327856 -0.0047763246 0.032015335 -0.03396085 -0.0064961216 0.0090203 0.049101986
0.079720944 -0.106571 -0.04128069 -0.05062303 0.0135557605 0.06644218 0.06855276 0.11923754
0.070039555 0.057198122 -0.059672527 -0.11958852 -0.0975501 0.03219151 0.09610469 0.04008594
-0.085515186 0.10040998 -0.014662115 -0.050724775 -0.010114833 0.064246625 -0.05843032 -0.109941214
0.07857363 0.08987393 -0.08007612 -0.0037278202 0.091852486 0.05552422 -0.083324485 0.023421593
-0.057327677 0.078241415 -0.026580086 0.11772952 -0.11616969 0.1249166 0.14890112 -0.01688619
0.048409186 -0.013274862 -0.07032217 0.048324402 -0.019011496 0.09441015 -0.031699393 0.106206276
0.14615613 -0.044643827 0.04468392 0.020874891 -0.13430478 -0.034527168 -0.108733036 0.09320851
-0.0045110285 -0.0045498717 0.03030312 -0.10426426 -0.0752599 -0.049876027 -0.07209246 0.014801414
-0.10814079 0.107532136 -0.04183904 -0.02855934 0.1356026 -0.06814533 0.01336258 -0.008430121
0.06446598 0.061446063 0.028689127 0.0055627916 0.014506264 -0.0075862524 0.11527408 -0.09466379
-0.09158507 0.10083605 0.005347934 0.018113518 0.060015243 -0.07645613 -0.04439585 -0.038229436
0.016040165 0.024799999 0.10410259 -0.0439121 0.058015898 -0.13189054 0.08859128 -0.03637983
-0.029561492 -0.10902208 -0.018934226 -0.07714988 -0.03060101 0.030730993 0.12318143 -0.10701661
0.017438967 -0.0497452 -0.017203862 0.0033536167 -0.048099056 0.12834246 0.006846852 0.12036542
-0.0028292753 -0.049142685 -0.050196875 -0.0077706617 -0.016879 -0.024140162 -0.00072610914 0.13827132
0.058597554 0.20698635 0.11313481 -0.10717456 -0.117440626 0.008573506 0.07363059 -0.0092391325
-0.07487323 0.149132 0.05929485 0.23123206 0.015559665 0.042736456 -0.13389017 -0.038923062
0.07151775 -0.09317344 0.0505227 0.061978597 -0.0003988774 0.15490815 -0.059390116 -0.085037895
0.029264405 0.03273322 -0.043127533 -0.009366818 0.072358064 -0.07384857 0.060015567 0.16248828
0.10714136 -0.07066165 -0.08414147 0.06988683 0.11804019 0.033846986 -0.0489015 0.07757957
00000000: 44f9 88bc 4a46 d73d 6474 b23d ec2c ad3b
00000010: 8a60 c73d 17f1 af3c 6959 3cbc b20b 33bd
00000020: 8ae0 423d 2fcb 893d dfab a8bd c1fa 75bc
00000030: e65a 5ebb a423 a83c 45de 92bd 20f9 453c
00000040: 403b 8cb8 170c b23d a4f9 93bd a3ba 173d
00000050: 8f69 c13d 8054 82bd bd2c cd3d 0d4c 4bbd
00000060: 8ab2 4dbd b71c d5bd e5a9 39bc 40e7 183c
00000070: 923e 16bd 44a1 3c3d 0d08 50bc 16b7 abbc
00000080: d820 f23c 1ec9 003e 6442 a63c c051 16bd
00000090: d249 ddbc 4867 a53d f067 8d3d c945 293e
000000a0: be97 89bd 0b57 03bd 8b64 d33d a2c0 febc
000000b0: 489a 44bd d9f5 f5bd 5050 07bd f157 8abd
000000c0: ede8 ca3c 6cad e23d 91a4 59bd 9a1d c83d
000000d0: 572b 8cbd dd13 ee3d 44d7 2bbc aafd 0bbe
000000e0: 477f ca3b f66c 47bd f7d2 f6bb 19fb 0f3e
000000f0: e364 cdbd ab8e fb3c d321 543d 5684 5fbd
00000100: a7e6 4e3d f6b0 68bd 1d57 b03c a865 48ba
00000110: e498 853d 1f30 113e 42d2 833d 6f97 6e3d
00000120: 3701 21bd 6170 38bd 9fbf 72bd 86d2 e5bd
00000130: cb4c 71bd 4656 45bd a242 a6bd 14f7 ef3d
00000140: c480 6b3d 8ab5 83bb be80 24bd b6c7 db3d
00000150: 6243 8abd 1c2c acbd 8777 eb3d efb9 8f3d
00000160: 8415 fb37 1213 963d b782 9cbb 8322 033d
00000170: 881a 0bbd 6bdd d4bb e1c9 133c 2a1f 493d
00000180: bc44 a33d e541 dabd f115 29bd 185a 4fbd
00000190: fb18 5e3c d612 883d 6465 8c3d d032 f43d
000001a0: e670 8f3d 9448 6a3d 2e6b 74bd d3ea f4bd
000001b0: 59c8 c7bd 3fdb 033d 89d2 c43d 2831 243d
000001c0: 9622 afbd bfa3 cd3d 5e39 70bc c8c4 4fbd
000001d0: afb8 25bc bc93 833d a254 6fbd dc28 e1bd
000001e0: 36eb a03d d30f b83d f3fe a3bd 724e 74bb
000001f0: 281d bc3d 5d6d 633d 07a6 aabd a4de bf3c
00000200: 6dd0 6abd 093d a03d 7bbe d9bc 2d1c f13d
00000210: 60ea edbd 46d4 ff3d 8979 183e e854 8abc
00000220: b648 463d cf7e 59bc 1205 90bd cfef 453d
00000230: ffbd 9bbc 1c5a c13d 39d7 01bd ad82 d93d
00000240: f4a9 153e 72dc 36bd 7c06 373d d201 ab3c
00000250: 3187 09be 5c6c 0dbd 6daf debd 1ae4 be3d
00000260: 40d1 93bb 1717 95bb 403e f83c 8088 d5bd
00000270: dd21 9abd ce4a 4cbd 36a5 93bd a181 723c
00000280: eb78 ddbd cf39 dc3d 6a5f 2bbd 47f5 e9bc
00000290: 68db 0a3e c78f 8bbd b9ee 5a3c 7d1e 0abc
000002a0: bd06 843d deae 7b3d 7605 eb3c 1448 b63b
000002b0: aeab 6d3c 1996 f8bb d114 ec3d 17df c1bd
000002c0: f490 bbbd 2283 ce3d b93d af3b cd62 943c
000002d0: 8bd2 753d 0895 9cbd 6cd8 35bd 7896 1cbd
000002e0: aa66 833c 5e29 cb3c bd33 d53d 2ddd 33bd
000002f0: 14a2 6d3d 500e 07be 586f b53d 0403 15bd
00000300: f12a f2bc f846 dfbd f31b 9bbc c200 9ebd
00000310: f8ae fabc 90bf fb3c 8c46 fc3d 862b dbbd
00000320: 2adc 8e3c 9fc1 4bbd 1def 8cbc 5ac8 5b3b
00000330: 8403 45bd 356c 033e 8f5b e03b 2582 f63d
00000340: 5d6b 39bb d749 49bd 3d9b 4dbd 09a1 febb
00000350: d445 8abc 97c1 c5bc 5c58 3eba ff96 0d3e
00000360: fd03 703d 3bf4 533e 39b3 e73d 567e dbbd
00000370: b684 f0bd e477 0c3c a3cb 963d bb5f 17bc
00000380: 2357 99bd 0fb6 183e 28df 723d 19c8 6c3e
00000390: f7ed 7e3c 6c0c 2f3d 811a 09be ca6d 1fbd
000003a0: e677 923d b7d1 bebd e4f0 4e3d 45dd 7d3d
000003b0: 6b20 d1b9 3ea0 1e3e 0d43 73bd 5928 aebd
000003c0: e8bb ef3c 4513 063d 7fa6 30bd 4877 19bc
000003d0: 7730 943d eb3d 97bd e2d2 753d 5463 263e
000003e0: ee6c db3d 0eb7 90bd 5d52 acbd d420 8f3d
000003f0: 0ebf f13d 23a3 0a3d f04c 48bd 0ae2 9e3d

sequential/features/Conv2D_bias f4 [6]
-0.07373549 -0.10278033 0.141278 0.034952417 -0.17003992 0.10896315
00000000: a202 97bd 7e7e d2bd 2eab 103e 442a 0f3d
00000010: f21e 2ebe 1228 df3d
