har_cnn/model_m123_quant.tflite (tflite, 7456 bytes, 6 tensors)

CNN_m123/conv2d_15/Conv2D f4 [5, 5, 5, 1]
00000000: ed6d 73bd b28f 383e 7b6c 973d b5ed cd3d
00000010: f507 f83d 0b4d e03c 4176 35be df61 dc3d
00000020: 517f e83c da78 29be db84 d23d ed9d 19be
00000030: 25ee 9d3c 9908 7abd 32bf d03d 1d7f 253e
00000040: 09a0 a73d 1324 1bbd 3d57 91bd c2a6 a43b
00000050: 9106 5dbd 7fb7 f8bc cbca 47be db80 c9bc
00000060: 0281 4ebe 6bee 003e 6a7b 953c ac1b 6abe
00000070: 1787 98bd 4e78 113e df80 a23d 4e1b 32be
00000080: ea37 3ebe bacd 81be da39 d63d 6485 96bc
00000090: 3f3b 00bc cc18 69bd d660 08be c4f4 9abb
000000a0: 3c53 793c fd13 893d dd4c 84bc 2ad8 d73c
000000b0: 8c21 a0bc 5f71 043e 5bcc 9bbd bda0 b83c
000000c0: e5e5 19be 6bb3 17bc adba 97bc 4aa3 3d3a
000000d0: 1a8c 113e aaf7 853c af00 98bc 7677 e43c
000000e0: 359d 283e 2fca 253e d6fc fdbd 35cf 17be
000000f0: 7e6a c0bb a976 ddbd c0b9 40bd 4088 613e
00000100: f571 763e 6b74 883d d087 243d 00c4 953d
00000110: cf4b 933d 063f 4cbe 260a a23d 8633 19be
00000120: 2c55 1bbe 9cab a2bc 2013 9dbc a9e4 513c
00000130: 14f6 393e 0800 ecbd 378c bebc 19fc e53d
00000140: 462b 023e 29b7 f9bc 5b8f 253c 3d06 173d
00000150: b8da 393e 5a8b 7f3b 07b4 81bd 01ea f03c
00000160: bbd5 29be b400 4bbe f147 acbd 34af 3e3e
00000170: ad46 183e a2f6 6fbe fa22 333e 3c7a 4a3e
00000180: 84d1 b8bc f597 0b3d 57f8 0c3e 8de2 d3bc
00000190: 97c4 143e 9539 c9bd 0b72 2abe ec37 033e
000001a0: a9c3 a7bd 00e9 4a3e ed60 183e d670 50be
000001b0: f291 09be e4f7 5cbe 2a6e 773b 1d66 05be
000001c0: 6515 41be 6647 1fbd 2125 39be 6bfc 64bd
000001d0: e21b 2bbe b9e5 4a3e 604f 393e 851f 473e
000001e0: 0aed d83d 93a6 103e 52b2 65be 7244 7a3d
000001f0: fed4 27be
-0.059431005 0.18023565 0.07393738 0.10055105 0.12110893 0.027380487 -0.17720892 0.10760855
0.028381022 -0.16550007 0.102792464 -0.1500165 0.019278595 -0.061043356 0.101927176 0.16161771
0.08184821 -0.0378762 -0.070967175 0.005024762 -0.05396134 -0.030360935 -0.19510953 -0.024597576
-0.201664 0.12590949 0.018247325 -0.22862118 -0.07447641 0.14206049 0.079347365 -0.17393228
-0.18576017 -0.2535227 0.10460253 -0.018374152 -0.007826625 -0.056908414 -0.1331819 -0.0047288854
0.0152175985 0.066932656 -0.016149933 0.026348192 -0.019547246 0.12933873 -0.07607337 0.022537583
-0.15029104 -0.009259085 -0.018521631 0.000723411 0.14213601 0.016353447 -0.018555013 0.027888995
0.1646622 0.16190408 -0.1240174 -0.14825137 -0.00587207 -0.10813648 -0.047052145 0.22024632
0.24066909 0.0666283 0.040168583 0.07312775 0.07192194 -0.19945917 0.07912092 -0.14961061
-0.15169209 -0.01985722 -0.019174159 0.0128108645 0.18160278 -0.115234435 -0.023260219 0.112297244
0.1271182 -0.030482845 0.010104979 0.036871184 0.18149841 0.0038992972 -0.063331656 0.029408457
-0.16585438 -0.19824487 -0.08412159 0.18621522 0.1487071 -0.23433927 0.17493811 0.19773191
-0.022560842 0.034080464 0.13766609 -0.025864864 0.14528118 -0.09825436 -0.16645066 0.12814301
-0.08191616 0.19815445 0.14880724 -0.20355543 -0.1343458 -0.21578938 0.0037754872 -0.13027234
-0.18855818 -0.03888645 -0.1808057 -0.055904787 -0.16709855 0.19814195 0.18096685 0.19445617
0.105920866 0.14126043 -0.22431305 0.06110043 -0.16389844

CNN_m123/conv2d_16/Conv2D i1 [10, 5, 5, 5]
00000000: 5ce8 ef64 b1f5 0d35 ea35 ef1a 3261 d9dd
00000010: fba2 7f2b c4dc ba29 3d2d 3b39 51ce c7fb
00000020: 9dfc 6b9f 95a2 e858 6b34 e837 aa6d 74f4
00000030: 613b a74d 2f65 f3eb 4c65 fc4e 602f 33b1
00000040: 99e0 40c5 9546 3837 5f64 fdaa f3cd 41c3
00000050: 9532 af95 61cf c74e f29c 51a1 7340 19dd
00000060: a7f1 d7d8 c595 5138 aab9 b1fb c319 4211
00000070: b4fc 3dd6 f63c 7215 3b97 fb22 bdf6 fd9d
00000080: 56b5 3b1d 92f6 5ae3 44c8 3b49 470e 86fe
00000090: 6aa8 a0f6 3065 a3f9 d4de 2403 ebc7 5e4e
000000a0: d533 ac03 d2c1 6177 5de8 ff0c 9aa3 815e
000000b0: 1f29 0dd7 d99a b606 fd96 4321 dd27 2df8
000000c0: b773 b457 1591 1a31 4216 d74a 9172 02d0
000000d0: 736e 2fa7 fb5d e0ff 1ebb a7e9 5824 f802
000000e0: 5ef8 d53c 374c e55d b625 3faa 0959 34a9
000000f0: aa22 d70e 31e8 a163 1d22 a450 f4ce 669b
92 -24 -17 100 -79 -11 13 53
-22 53 -17 26 50 97 -39 -35
-5 -94 127 43 -60 -36 -70 41
61 45 59 57 81 -50 -57 -5
-99 -4 107 -97 -107 -94 -24 88
107 52 -24 55 -86 109 116 -12
97 59 -89 77 47 101 -13 -21
76 101 -4 78 96 47 51 -79
-103 -32 64 -59 -107 70 56 55
95 100 -3 -86 -13 -51 65 -61
-107 50 -81 -107 97 -49 -57 78
-14 -100 81 -95 115 64 25 -35
-89 -15 -41 -40 -59 -107 81 56
-86 -71 -79 -5 -61 25 66 17
-76 -4 61 -42 -10 60 114 21
59 -105 -5 34 -67 -10 -3 -99
86 -75 59 29 -110 -10 90 -29
68 -56 59 73 71 14 -122 -2
106 -88 -96 -10 48 101 -93 -7
-44 -34 36 3 -21 -57 94 78
-43 51 -84 3 -46 -63 97 119
93 -24 -1 12 -102 -93 -127 94
31 41 13 -41 -39 -102 -74 6
-3 -106 67 33 -35 39 45 -8
-73 115 -76 87 21 -111 26 49
66 22 -41 74 -111 114 2 -48
115 110 47 -89 -5 93 -32 -1
30 -69 -89 -23 88 36 -8 2
94 -8 -43 60 55 76 -27 93
-74 37 63 -86 9 89 52 -87
-86 34 -41 14 49 -24 -95 99
29 34 -92 80 -12 -50 102 -101

CNN_m123/conv2d_17/Conv2D f4 [6, 3, 3, 10]
00000000: b000 76bd c81d 5bbd 7174 0dbe 418a bcbd
00000010: b0f9 a03d 4cca 1c3e d596 4fbe 7c22 9e3d
00000020: 8f9b debd 0ffd 3dbe 7ef0 87bd 6cfc 92bd
00000030: 6600 083e be87 05be 522c 17be f8bf c33d
00000040: 340a 8b3d eca9 fa3d 0a64 3dbe 2cb0 203e
00000050: 5541 12be 38ca 063d ec4f 1c3e 88cb 56bd
00000060: 43b1 f5bd ccdc 84bd 6e5c 1c3e 8f5e 29be
00000070: 3049 543c e88b 503e 1280 cfbd 5cd4 c03d
00000080: 9e1b bcbd 7c99 963d 4017 57bd e296 2a3e
00000090: 56a7 88bd 7cfc c73d caa6 83bd 4454 95bd
000000a0: 40eb 1cbe e855 1e3d c83b 8ebc 20a8 4b3d
000000b0: 1e5d 05be 8807 913c a0f1 96bc 8a34 99bd
000000c0: 7e67 0c3e b820 fabc 90d4 0c3e 4870 b23d
000000d0: 0f7a 2cbe 70c8 89bc 1ccf 3ebd a420 19be
000000e0: 14f9 ddbd 4d2b d2bd 0002 103d a0f5 493d
000000f0: 73e4 4fbe 8051 793b 5eb4 dcbd fe0d 2abe
00000100: 00b2 c4b9 53b0 29be f845 4cbe e1d9 36be
00000110: d00b e33d 7607 343e 60e3 d9bd 1450 453e
00000120: b804 b93d 38c2 983c 52e5 1b3e dfc0 dbbd
00000130: 5e54 403e 6fa1 a5bd 666c b3bd da5f 073e
00000140: 703f 4c3d 50a7 5e3d 4020 373e c057 67bc
00000150: 9108 19be 7065 85bd 0042 33ba e016 bf3c
00000160: fc42 0d3d 6149 26be 4071 21bc 203c 8d3b
00000170: eaf7 86bd b26c 453e 18e7 6d3d 84db 3e3e
00000180: 69c8 b2bd f661 0a3e c02c 31bd 10b7 af3d
00000190: 7417 2b3e 006c 3abc 4e64 b6bd eaf5 c1bd
000001a0: 3e18 313e cc84 3e3e 9579 a4bd b450 373d
000001b0: 0089 0d3d 78dc 0c3e e493 f33d 5e10 283e
000001c0: 50a3 953d 6018 55bc f08e 5e3c da81 89bd
000001d0: 1211 80bd a03f 23be 1017 f13d 7ebe 9dbd
000001e0: 861e 053e 6bed 33be 3780 f6bd 34bf 4b3e
000001f0: 94e3 113e ac1c 15be 5688 0cbe f012 4b3c
00000200: 936e 03be f859 09be 88a5 843d 7092 cebc
00000210: 9480 803d f09e 223c aebf 153e 88bc 6d3d
00000220: 3fdc 4abe 30b9 133e 347c fb3d 70db 863d
00000230: 680c e43d 58c1 28bd 903d 473e 385c 63bd
00000240: 2030 353e 9827 b53c 68ac 2abe f4ec d73d
00000250: e8b9 8ebc 9da2 f5bd 801b 2e3c 10ff 46be
00000260: 84b9 143e 786e 533d 12ec 3abe 50ba 203c
00000270: 1981 a8bd 9260 2fbe 609e a0bb f225 303e
00000280: 609b 28bd a0e2 0fbc ec8d 233e 88b1 9e3d
00000290: 68bf 1d3d f0d6 7b3d 45a9 4ebe c041 ad3d
000002a0: 189d 14be 76a3 87bd 1c8a 303d 42aa 0b3e
000002b0: e0b7 6a3d 7de9 e6bd 94d3 39be eca6 903d
000002c0: 107a 8b3d 175e 4dbe 442c 103e 3ce4 4e3e
000002d0: 20cc 91bd 10e7 ee3d 8c39 253e f427 f93d
000002e0: 90e3 8cbd 7022 653d b054 9d3d 3c38 d2bd
000002f0: 28c7 4e3e 58ad 47be 5708 21be fca0 d9bd
00000300: 3348 3ebe 98a6 cdbc 34ba ce3d 3890 3dbe
00000310: 042c 80bd 70e9 9f3d a061 e53d a041 e7bc
00000320: fcdf 99bd 14c5 203e 5223 343e e0a8 da3c
00000330: 8d13 3ebe 80f2 05be f8c1 c13c 6ca3 0a3d
00000340: 248f 9d3d e030 973d f1ba ccbd a797 fabd
00000350: 9f67 ffbd 569e 13be 6060 503d 0e35 f4bd
00000360: b005 cb3c 461e 4a3e fb60 efbd b985 1dbe
00000370: a06b cb3d 8658 243e 1a59 29be 9d18 0cbe
00000380: 1082 e1bd a08e 53bc a248 debd 546d 0abe
00000390: 5e17 18be 2865 833d 6c94 1ebd ce72 4abe
000003a0: efca b3bd 9ccd 083e a4ec e33d fc70 be3d
000003b0: c091 f3bb f0f7 3b3e 844e 02be 342d e63d
000003c0: a433 1b3e fe63 0e3e 6009 16bd d8ea 013e
000003d0: 24e1 77bd 4071 953d 4003 99bd 1877 a13d
000003e0: 56ae 48be fe9e 3dbe c02a d03d d0d6 953c
000003f0: 90af 1dbc 1062 cabc cc94 853d 80b7 383e
-0.06005925 -0.0534952 -0.1381395 -0.09206057 0.07860124 0.15311545 -0.20272382 0.07721421
-0.10869514 -0.18553565 -0.06637667 -0.07177052 0.13281402 -0.13040063 -0.14763 0.095580995
0.067890555 0.12239441 -0.18495193 0.15692204 -0.14282735 0.032907695 0.15264863 -0.052440196
-0.119967006 -0.06487426 0.15269634 -0.16539977 0.012956902 0.2036587 -0.10131849 0.09415504
-0.09184955 0.073534936 -0.052512407 0.1665912 -0.06672542 0.097649544 -0.06428297 -0.07291463
-0.15324116 0.038656145 -0.01736249 0.049720883 -0.13023803 0.017703786 -0.018425763 -0.07480724
0.13711354 -0.03053318 0.13752961 0.08712822 -0.16843437 -0.016819209 -0.046584234 -0.14953858
-0.108385235 -0.10262165 0.035158157 0.049306512 -0.2030199 0.0038042963 -0.1077659 -0.166069
-0.00037516654 -0.16571169 -0.19948566 -0.17856552 0.110862374 0.17580971 -0.106390715 0.19268829
0.09034103 0.018647298 0.15224198 -0.107301466 0.18782184 -0.08087432 -0.0876091 0.13220158
0.049865186 0.05435878 0.17883396 -0.014120042 -0.14944674 -0.06513488 -0.0006838143 0.023326337
0.03448771 -0.1623893 -0.009853661 0.004310146 -0.065902546 0.19279745 0.058081716 0.18638426
-0.087296315 0.13513932 -0.043255568 0.08579838 0.16708165 -0.011378288 -0.0890585 -0.094707325
0.17294404 0.18605345 -0.080310024 0.0447547 0.03455448 0.13755977 0.11893442 0.16412494
0.0730654 -0.0130063 0.013583884 -0.0671422 -0.06253256 -0.1594224 0.11771977 -0.07702349
0.12999925 -0.17571037 -0.12036174 0.19897157 0.1424697 -0.14561719 -0.13723883 0.012394652
-0.1283515 -0.13413227 0.06476885 -0.025216311 0.06274524 0.009925589 0.14623901 0.058041126
-0.1981058 0.14426112 0.12279549 0.06584823 0.11135179 -0.041200012 0.19457078 -0.05550787
0.1769414 0.022113606 -0.1666733 0.10543242 -0.017422631 -0.11993907 0.010626674 -0.19433236
0.14523894 0.051619023 -0.18254116 0.009810045 -0.082277484 -0.17126682 -0.0049016923 0.17201975
-0.041163802 -0.008782059 0.15972108 0.07748705 0.038512617 0.061484277 -0.20181759 0.084598064
-0.14513052 -0.066229746 0.04310046 0.13639167 0.057304263 -0.11275003 -0.18147117 0.07063088
0.06810391 -0.20055424 0.14079386 0.20204252 -0.07119012 0.116651654 0.16135234 0.121658236
-0.068793416 0.055941045 0.076821685 -0.10264632 0.2019316 -0.19499719 -0.15725838 -0.106264085
-0.1858223 -0.025103852 0.10094109 -0.18512046 -0.06258395 0.078081965 0.11200261 -0.028229535
-0.07513425 0.1570018 0.17591599 0.026691854 -0.18562146 -0.13080788 0.023652062 0.033847257
0.076933175 0.07382369 -0.09996594 -0.12235957 -0.12470936 -0.14415869 0.05087316 -0.11924182
0.024782985 0.19738111 -0.116884194 -0.15383042 0.09932637 0.16049394 -0.16537896 -0.13681264
-0.110111356 -0.012912422 -0.10853697 -0.13518268 -0.14852664 0.064157784 -0.038715765 -0.19770357
-0.08778941 0.13359684 0.1112912 0.09298894 -0.0074331462 0.183563 -0.12725264 0.112390906
0.15156418 0.13905331 -0.036630034 0.12687242 -0.060517445 0.07296991 -0.07471323 0.078840435
-0.19597754 -0.18517682 0.10164404 0.018290907 -0.009624377 -0.024704963 0.065225214 0.1803875

CNN_m123/conv2d_15/BiasAdd;CNN_m123/conv2d_15/Conv2D;CNN_m123/conv2d_15/BiasAdd/ReadVariableOp/resource f4 [5]
00000000: 4b7e 01bc d547 9b3a 0192 dfbb 9358 ff3c
00000010: b8a5 0abd
-0.007903646 0.0011846969 -0.006822825 0.031170165 -0.033849448

CNN_m123/conv2d_16/BiasAdd;CNN_m123/conv2d_16/Conv2D;CNN_m123/conv2d_16/BiasAdd/ReadVariableOp/resource f4 [10]
00000000: a830 82bc 2dc8 a6bb 305b f8bc 480b 9dbc
00000010: 37c8 a73c 1023 7a3c 49bb cfbc b31d 623c
00000020: f553 c9bc 55d5 b8bb
-0.015892342 -0.005089781 -0.03031692 -0.019170418 0.020481212 0.015267149 -0.02535786 0.013801026
-0.024576167 -0.0056406655

CNN_m123/conv2d_17/BiasAdd;CNN_m123/conv2d_17/Conv2D;CNN_m123/conv2d_17/BiasAdd/ReadVariableOp/resource f4 [6]
00000000: 0000 0000 0000 0000 0000 0000 7512 efbb
00000010: 0000 0000 a855 c63c
0.0 0.0 0.0 -0.0072959014 0.0 0.024210766
