har_cnn/model_org.tflite (tflite, 13352 bytes, 6 tensors)

CNN_org/dense_3/BiasAdd/ReadVariableOp/resource f4 [6]
000000 c6 40 e8 3d 0d e1 a7 b9 2c 4a 24 3d bc 74 03 be
       0.113404796 -0.00032020398 0.0401098 -0.128375
000010 46 b8 6d bd 38 5f 30 3d
       -0.058037065 0.043059558

CNN_org/dense_3/MatMul f4 [6, 200]
000000 e7 a5 ed bc 1b a1 4d 3d 04 58 3d bd d0 20 c2 3d
       -0.029009772 0.05020247 -0.046226516 0.09478915
000010 eb 5b 30 3e 0c 85 62 be 58 04 22 be bc 2f 94 bd
       0.17222564 -0.22121066 -0.1582197 -0.07235667
000020 e6 58 ab 3d b8 04 31 3d 98 0a d2 3d f9 a7 e6 3d
       0.083665654 0.04321739 0.10255927 0.11262507
000030 f8 dc 87 bd d4 09 93 3d 08 86 b9 3d 0b d7 90 be
       -0.06633943 0.07179609 0.090587676 -0.28289065
000040 d0 5a ea 3c e7 44 78 bc 46 0c a0 3d 93 93 d0 bd
       0.028607756 -0.015153146 0.07814841 -0.101843975
000050 8b 9c 64 3e c7 bc 6f be 35 d2 18 3e 3a 4c 1a be
       0.22325341 -0.23411857 0.14923938 -0.1506814
000060 04 96 eb bc 55 8a ea bd 40 da 8b 3b a4 e0 aa 3c
       -0.028758056 -0.11452166 0.004267961 0.02085907
000070 d2 5b 4f 3d 62 60 43 bd 85 71 c3 bd e5 fc df 3c
       0.050624676 -0.04769934 -0.095431365 0.02734227
000080 6e 67 88 bd 2f 6f b9 bd 42 ab 0e be be 34 df bd
       -0.06660353 -0.0905441 -0.13932517 -0.10898732
000090 90 74 64 bd 92 0f 8e bd 46 13 cb 3c 12 b4 df bd
       -0.055775225 -0.069365636 0.024789464 -0.109230176
0000a0 a5 ec 1b 3e 02 2c 98 bd eb d8 1c 3e b2 82 20 be
       0.15226991 -0.07430269 0.15317123 -0.15674856
0000b0 21 75 20 3e 80 e0 80 be 36 63 3f bd 07 ec 01 bd
       0.15669681 -0.2517128 -0.046725474 -0.031719234
0000c0 17 42 00 3d 9e ea e5 bd ba 95 0d 3e fa e8 8b bd
       0.03131303 -0.1122639 0.13826647 -0.06831546
0000d0 73 39 13 3c ec fb 23 3e d4 8f 0a 3e 3a 7c cd be
       0.008985865 0.1601407 0.13531429 -0.4013384
0000e0 8b b9 18 be 85 60 f5 bd f7 dc fc bd 94 08 b1 3d
       -0.14914529 -0.119813 -0.12346833 0.08644214
0000f0 76 ee 74 3e 2e 1d df bd 69 31 c2 3d 40 c9 9e 3d
       0.2391909 -0.108942375 0.094820805 0.07753229
000100 e2 14 db bd 39 71 a7 bc 00 51 71 bb c1 0b e5 3d
       -0.106973425 -0.020439731 -0.0036821961 0.111838825
000110 68 d3 5b be a0 0c 9f 3b 15 d4 26 3e b6 c7 d7 bd
       -0.21467364 0.0048538 0.1629184 -0.10536139
000120 f4 19 28 be 5c 2d c2 3d 27 9d 2e bd b1 30 d4 bd
       -0.1641615 0.09481308 -0.04263034 -0.1036085
000130 cc 4e 94 3d bc b7 d9 bd 2e cd 4c bd 56 31 84 bd
       0.07241592 -0.10630748 -0.050000362 -0.064547226
000140 8a e1 c7 bd 6f 70 55 3d 0c 18 dc 3d 9c ce 12 be
       -0.09759815 0.05210918 0.10746774 -0.14336628
000150 8c 1f 98 bd 50 90 79 be 04 ef 7a 3d 70 d2 09 3d
       -0.07427892 -0.24371457 0.0612631 0.033647954
000160 0e a2 d9 bd b2 2b 19 be b8 1a c9 bd 63 3f b5 bb
       -0.106266126 -0.14958075 -0.09819549 -0.005531238
000170 2b d6 9a 3d d0 e8 fd bc 47 93 a6 3d 4a 0f 8a be
       0.075603805 -0.030994803 0.0813356 -0.2696479
000180 c4 14 a7 3d 2d 65 e6 bd 3d f9 27 3e df e0 15 be
       0.081582576 -0.112497665 0.1640367 -0.14636563
000190 dc a4 b5 bd 26 4c 81 3d 9a f8 86 3d fc 16 21 3e
       -0.08869335 0.06313352 0.06590386 0.15731424
0001a0 fb f6 b3 3d a7 03 85 3e 30 cd 88 bc 3f 39 bc 3d
       0.08787342 0.2597935 -0.016699404 0.09190606
0001b0 c0 30 1c be fb fb 21 be ce 38 12 bd 29 e4 33 be
       -0.15252972 -0.15818779 -0.035698704 -0.17567505
0001c0 f4 1c e1 bd 8a 9e 01 3e 22 bf 4f be 2c 00 ca 3b
       -0.109918505 0.12658134 -0.20287755 0.0061645713
0001d0 31 e9 92 bd 74 8c 03 3e 95 54 d9 bc 04 28 c8 3d
       -0.07173384 0.12846547 -0.02652959 0.097732574
0001e0 46 4b 2e 3e 5f 0a b9 3d 3b f0 72 3d 72 f5 21 3e
       0.17020902 0.09035181 0.059311133 0.15816286
0001f0 8c b3 e0 bd f0 1b 0d be 12 63 ff bd 70 0f 84 3d
       -0.10971746 -0.13780189 -0.12470068 0.06448257
000200 bb a3 2a 3e 60 44 1c 3e 7a c7 9a bd 39 b3 87 be
       0.1666402 0.15260458 -0.075575784 -0.26503924
000210 9f 29 d4 3c 38 d6 7c bd 7a 7b e4 3c 37 b6 66 be
       0.025898753 -0.061727732 0.02789091 -0.22530447
000220 ed 32 0f be 34 08 09 be 4b 14 90 3d 1a 74 21 3e
       -0.1398427 -0.13382035 0.070351206 0.15766945
000230 41 1d f4 bc 9a 06 e5 bd 31 8e e6 3d 66 8c 06 3e
       -0.029799106 -0.111829 0.112575896 0.13139495
000240 2d bc a3 bd ae 42 e8 3a 5a 14 e9 bd b1 5c 37 bd
       -0.07994876 0.0017720067 -0.11380835 -0.04476613
000250 a5 e4 96 be c0 fc 5e 3c 8d 08 2b 3e e9 5f 0b be
       -0.29471317 0.013610065 0.1670248 -0.13610806
000260 94 78 3e 3d bc 81 18 be 23 1f b5 3d 3b ca c8 3e
       0.04650171 -0.1489324 0.088438295 0.3921679
000270 c4 5c fc bd 3c 1c 19 be 16 f4 7b 3d a8 46 85 3c
       -0.12322381 -0.14952177 0.061512075 0.016269043
000280 86 0d 3b bd b9 e0 df 3d bc 70 04 3d 70 68 1d be
       -0.045667194 0.10931534 0.032334074 -0.15371871
000290 8f 0c 10 3e fe 42 dc 3d 38 2d ee 3c d7 e8 3b 3d
       0.1406729 0.10754965 0.029074296 0.04587635
0002a0 48 6a c3 3d f4 59 af bd f4 d1 d5 3c c9 ec 3a bd
       0.09541756 -0.08562079 0.02610109 -0.045635972
0002b0 6a 5e 24 be 4c fb df bd 2b 60 88 bd 81 80 87 bc
       -0.16051641 -0.10936603 -0.066589676 -0.016540768
0002c0 3c 5b de 3d b2 12 e0 bd 4a cb 9d 3c 28 af b5 3c
       0.10857245 -0.10941066 0.019261975 0.022178248
0002d0 c0 6f 89 bd cc 81 ae bc 34 b5 e1 3d 7a 9d 8e bd
       -0.06710768 -0.021302126 0.1102089 -0.0696363
0002e0 55 af 51 3e 21 c8 cb 3d 8a dd 0b 3e d0 7f 41 bc
       0.2047704 0.09950281 0.13658729 -0.011810258
0002f0 de e1 51 bd b0 e5 fb bd 02 d1 9f 3d 43 14 80 3d
       -0.051240794 -0.12299669 0.07803537 0.062538646
000300 23 f4 1c be 70 22 37 bc 05 fe 87 bd 72 6c 4e bd
       -0.15327506 -0.011177644 -0.06640247 -0.05039639
000310 65 1a 24 be 0e b7 71 3d 9f 36 07 be 90 c8 ea 3c
       -0.16025694 0.059012465 -0.1320443 0.028660089
000320 74 b6 11 be e7 c3 f7 3d cc 52 b4 bc 87 bb b6 bd
       -0.14229757 0.12097912 -0.022012137 -0.08922487
000330 a7 92 7e 3d 06 c7 f3 3d 48 43 59 3d e2 90 95 bd
       0.062151577 0.11903195 0.05304268 -0.07303025
000340 d5 04 4b bd 00 f7 42 bb 65 da 13 be 86 1e 94 bd
       -0.049565155 -0.0029749274 -0.1443878 -0.072323844
000350 fb 7e 50 bd 98 a3 db 3d b4 aa 09 3e 25 50 12 3d
       -0.050902348 0.107245624 0.13444024 0.035720963
000360 22 66 02 be ab 2b 5f 3d 71 f0 11 bd fa eb 90 3d
       -0.12734273 0.054485004 -0.035629693 0.07076259
000370 40 44 9c bd 0a f9 36 be c2 93 73 bd b2 6a 0e 3e
       -0.07630205 -0.17868438 -0.059467085 0.13907889
000380 c7 e2 0d 3e 04 cc 99 bd 90 de 94 bc 15 89 08 3e
       0.1385604 -0.07509616 -0.018172532 0.13333543
000390 c5 d0 e4 bd a3 ea 09 be 61 78 69 bd b0 e1 fd 3d
       -0.11172632 -0.13468413 -0.056999568 0.12396562
0003a0 8d bf 03 3e 13 92 c7 bd 6c 42 68 3d 52 a6 2e be
       0.1286604 -0.09744658 0.05670397 -0.17055634
0003b0 38 5d 26 bd 9b b4 07 3e 0f 49 43 bd e4 c9 ec 3d
       -0.040616244 0.1325249 -0.047677096 0.11561945
0003c0 15 ce e6 bc 31 3e d6 bc 65 b5 12 3c c1 2b a8 bd
       -0.02817444 -0.026152702 0.008954381 -0.082114704
0003d0 ae 4f e1 bd 2a bc ef bd 20 a0 b8 bd 12 0b 28 3e
       -0.11001526 -0.11705811 -0.090149164 0.16410473
0003e0 40 4e 86 3d a0 12 cc bb 0b 4d 00 3e 8c ca ed bd
       0.06557894 -0.006227806 0.1252939 -0.116108984
0003f0 0e 48 10 bd 00 e6 d1 bd 59 61 de 3d 2f 99 06 bd
       -0.035224967 -0.10248947 0.10858411 -0.03286093

CNN_org/conv2d_6/Conv2D f4 [5, 5, 5, 1]
000000 0d 25 fa bd 34 37 3a be c5 a5 20 be f6 0f 91 3d
       -0.12214098 -0.18185121 -0.15688236 0.070831224
000010 06 96 45 be 88 5b 21 3e 40 61 3b 3e 55 f8 db 3d
       -0.1929551 0.15757573 0.18298817 0.10740725
000020 2d 8f eb bd 0d ab 9c bd 9a d7 80 3d b7 83 3c 3e
       -0.11501918 -0.07649813 0.06291123 0.1840962
000030 5f 58 bd 3d b1 19 0d be 59 f8 97 3d 15 3f 0f be
       0.09245371 -0.13779332 0.074204154 -0.13988908
000040 46 64 25 3e 3f e6 b7 bc 14 96 19 be 32 f6 ae 3d
       0.16151533 -0.022448657 -0.14998657 0.08543052
000050 96 57 0f 3e fd d2 1a 3e 24 4f f7 3c 3d 30 4e 3e
       0.13998255 0.15119548 0.030189104 0.20135589
000060 29 1b c3 bd f8 eb dc 3c 1a ac 13 3e 5a ca 23 be
       -0.09526665 0.026967987 0.1442112 -0.1599516
000070 3b 11 08 be f3 83 46 be 80 d9 37 3e bd 1d c3 bd
       -0.13287823 -0.19386272 0.17954063 -0.095271565
000080 1d 61 90 bd cb f3 1a be 68 6e f2 bc 92 8d 5c bd
       -0.07049773 -0.15132062 -0.029593661 -0.05384595
000090 02 3e a2 bd fb cd 06 3e e0 70 d4 bc eb 8e 35 3e
       -0.07921983 0.13164513 -0.02593273 0.177303
0000a0 09 d0 22 3e 04 2c f8 bd 74 9a 91 3d aa ed d4 3d
       0.15899672 -0.1211777 0.07109538 0.10396893
0000b0 c1 ef 8f 3d 08 aa bf 3d 20 cb 3f bd ba c7 f8 bd
       0.07028151 0.09358603 -0.046824574 -0.1214747
0000c0 1e 8a 27 be 1c 27 50 bc 30 1f 47 bd b1 19 5d 3e
       -0.16361281 -0.012704637 -0.048613727 0.21591832
0000d0 d7 87 3a bd 20 5a 95 bc 9b a2 61 3e e8 19 ca 3d
       -0.045539703 -0.018231452 0.22034685 0.098682225
0000e0 f7 9f 31 3e bf 57 21 3d b6 f7 10 3d 6e 5a 56 3c
       0.17346178 0.03939032 0.035392486 0.013083084
0000f0 38 92 36 be ca 10 77 bd 8a 0f 18 be b2 ce 43 3e
       -0.17829216 -0.060318746 -0.14849678 0.19121817
000100 06 29 21 3e c3 e5 12 3c 4f 46 49 be 86 3f 4f be
       0.15738305 0.008965912 -0.19655727 -0.20239076
000110 41 4f 2e be ab b6 90 3d a9 91 15 be 57 43 14 3c
       -0.1702242 0.07066091 -0.14606346 0.009049258
000120 99 b3 3d 3d 69 21 1c be c9 a2 33 3e 78 92 f5 3d
       0.046313856 -0.1524712 0.17542566 0.11990827
000130 38 8e 20 3e 31 cb 09 3d 51 5d f5 3b 17 57 1f 3e
       0.15679252 0.033641044 0.007487931 0.15560566
000140 71 c1 82 3d 6b fd 88 bd d0 f3 26 bc 6f 0a 1b be
       0.06384552 -0.06688961 -0.010189965 -0.15140699
000150 5f 26 91 3c c0 f2 2c be 9c dd 1a be 50 fb 43 be
       0.017718492 -0.16889477 -0.151236 -0.19138837
000160 c1 f5 6d bc 62 a6 81 3d 1f 0f 15 3e dd 92 cc 3d
       -0.014523924 0.06330563 0.1455655 0.099889494
000170 0d 31 70 3d 20 6d e1 3d 72 52 8d bc 38 75 25 3e
       0.05864053 0.11007142 -0.017251227 0.16157997
000180 db 57 80 bd 9b 8e 70 3d e8 59 d2 bd b2 21 97 bd
       -0.06266757 0.05872975 -0.102710545 -0.07379474
000190 56 fc b6 3c f3 b5 ac 3d 59 5a 14 3e 06 1e 03 be
       0.02233712 0.084331416 0.1448759 -0.12804422
0001a0 5e 7b 1b bd 00 d5 1c 3d 42 b7 77 3d 68 d6 e5 bd
       -0.03795945 0.03828907 0.060477503 -0.11222535
0001b0 a3 53 8b 3d 5d d4 e7 3d 24 21 bc 3d 6d 8b 26 3c
       0.06803062 0.11319802 0.091860086 0.010165078
0001c0 99 b3 71 bd 1f db 40 3e be c7 98 3d be 6d 44 be
       -0.05900917 0.18833588 0.07459973 -0.19182488
0001d0 35 c7 04 3e 57 c6 79 3d 46 2a 2a 3e a4 08 3f 3e
       0.12966616 0.060980167 0.16617689 0.1865564
0001e0 da 10 91 3d af 0d a7 bd 94 76 d7 3d 83 55 68 3e
       0.07083292 -0.08156907 0.10520664 0.2268887
0001f0 f2 f1 94 bd
       -0.0727271

CNN_org/conv2d_7/Conv2D f4 [10, 5, 5, 5]
000000 be 47 e2 3d c7 07 87 3d e3 ed 72 3d f6 37 03 bd
       0.1104884 0.0659328 0.059308898 -0.03203579
000010 e2 6c 89 bd 39 1a 21 bd 5b 6d a4 3d 6a 11 41 3c
       -0.06710221 -0.03933165 0.080286704 0.011783937
000020 4a d9 bb 3d 03 ec 91 bd b3 77 04 3d dd 98 bc 3d
       0.09172304 -0.07125094 0.032340717 0.09208844
000030 12 f9 7b bc cb ed aa bd 67 fa 3a 3d 56 52 06 3d
       -0.015379207 -0.08346137 0.04564896 0.032793365
000040 cb 72 bb bc 4f aa 16 3e a7 64 d4 3d 5d f2 b3 3d
       -0.022881886 0.14713405 0.103707604 0.087864615
000050 4f 83 b7 3d 86 27 87 bb 49 04 3c 3d ad 0e 05 3e
       0.08960592 -0.0041245846 0.045902524 0.1299388
000060 66 af e7 bc ce 99 20 bc 9d 4d 8b bd 90 f1 05 be
       -0.028281879 -0.009802295 -0.06801913 -0.1308043
000070 5a 73 a5 3d 3f a5 df bd 74 fe dd 3d 44 8c df 3c
       0.08078642 -0.1092019 0.10839549 0.027288564
000080 64 a2 35 ba c4 19 9d 3c 77 8d fb bd 02 63 33 3d
       -0.00069288 0.019177325 -0.12282842 0.043795593
000090 e1 9c 0a 3d 96 fa af bb 67 d2 10 3d c3 68 de bd
       0.033841018 -0.0053704483 0.035356905 -0.108598255
0000a0 91 a6 2a 3b 2d 43 25 3d 70 f1 1c 3e bc 10 c2 3b
       0.0026039223 0.040347267 0.15326476 0.005922405
0000b0 ce 94 85 3d 03 4d a4 bc 00 51 29 39 36 99 be bb
       0.06522523 -0.020056253 0.00016147271 -0.005816604
0000c0 cc 6c 01 3e 3c 77 55 bd db e2 e8 bd 0d 5c 27 bc
       0.12639159 -0.052115664 -0.11371394 -0.010214818
0000d0 e1 40 90 bd 59 f1 06 3e 02 c0 00 3e d0 45 20 3a
       -0.07043625 0.13178004 0.12573245 0.00061139185
0000e0 6a 56 7e 3d a1 d3 bf 3d eb 9e b7 bd af f6 59 3d
       0.06209413 0.09366537 -0.08965858 0.05321377
0000f0 74 05 d4 3c df cd 8b bd df 16 17 be 13 39 fb bc
       0.025881507 -0.06826376 -0.14754818 -0.030666864
000100 18 62 f5 3d e0 05 11 be ec 13 af bb 27 b8 92 3d
       0.119816005 -0.14162397 -0.005342951 0.071640305
000110 b0 70 7a 3b 28 89 02 3e 77 20 15 3e a5 50 02 bd
       0.003821414 0.12747633 0.14563166 -0.03181519
000120 79 68 1b 3d 38 4e 8d 3d c7 a1 b5 3c 1b e3 8b 3c
       0.03794143 0.06899685 0.022171868 0.017076066
000130 5d 6b 8e 3d 20 54 d0 3c 36 bb d0 3d bd a4 ad 3d
       0.06954072 0.025430739 0.10191958 0.08478687
000140 57 cc d4 bd 8a b2 dd 3d c0 e9 af 3d 68 71 23 3d
       -0.10390537 0.10825069 0.08589506 0.039903075
000150 1c f0 c3 3d fa 83 05 bc 3c 70 ea bd 17 c9 23 3c
       0.095672816 -0.008149141 -0.11447188 0.009996674
000160 90 c7 c3 bd 47 4e e2 bd 6f 6c b5 3d 12 a4 62 3d
       -0.09559548 -0.110500865 0.08858573 0.05533225
000170 18 1b 22 3e e4 69 92 bd 66 a1 9b 3d d0 65 c5 3d
       0.15830648 -0.07149103 0.07599144 0.0963856
000180 1f 20 65 bd 0f fe 52 be 18 31 6b 3d 80 e3 88 3c
       -0.055938836 -0.20604728 0.057419866 0.016710043
000190 b4 b5 65 3d 3f 30 e0 bd 73 98 ef bd 46 96 c0 bd
       0.05608149 -0.10946702 -0.11698999 -0.094036624
0001a0 7e e5 b0 bd ec bc fc bd 82 f3 e9 bd bb 7e a6 bd
       -0.08637522 -0.123407215 -0.114233986 -0.08129641
0001b0 e9 48 d9 3d 3a d2 a5 bd 78 03 01 3d 7c b1 26 3d
       0.1060961 -0.08096738 0.03149745 0.040696606
0001c0 83 0b 3f be 71 c5 90 bd 41 87 bf 3d f9 74 7d bd
       -0.18656735 -0.07068909 0.093519695 -0.061879132
0001d0 6f ac 0e 3c 16 4b 3b 3d 26 52 91 bd c5 80 ec bc
       0.008708104 0.045725904 -0.07095747 -0.028869996
0001e0 0a a3 74 3d ae 6f bd bd 9d 55 1d be 4f 5d 15 3d
       0.0597258 -0.09249817 -0.1536469 0.03646594
0001f0 de 75 af bd 72 74 ae bc 10 76 d9 3d fb a9 8e 3e
       -0.08567403 -0.02129576 0.10618222 0.2786406
000200 82 1f 15 3c 28 96 55 bc 3e b3 ca bd 57 4f 85 3b
       0.00910175 -0.013036288 -0.09897469 0.004068296
000210 cf fb 10 3d 00 8e 3c bd 3c 90 0d 3d dc c3 f7 bd
       0.035396393 -0.04603386 0.03456138 -0.12097904
000220 a3 76 d2 3d 23 be cc 3d 04 6f db bd cb 71 53 3c
       0.102765344 0.09997203 -0.10714534 0.012905548
000230 95 d5 6a 3d 6b d3 72 3d b9 85 0d 3e fc 53 28 3c
       0.057332594 0.059283655 0.13820542 0.01027393
000240 45 dd 8b bd 61 20 f1 3c 4d 49 7e bd 34 fa 10 3e
       -0.06829313 0.029434385 -0.062081624 0.14157945
000250 f0 79 7b 3d 79 b9 0d bd d3 3e a1 bd 5e 07 5c bb
       0.061395586 -0.03460071 -0.07873311 -0.0033573727
000260 8b 30 55 3e 86 32 1b 39 ad 6d ce bd ac e8 6d bd
       0.20819299 0.00014800773 -0.10079513 -0.05808322
000270 a1 c7 bf 3d da d0 dd bd bc 66 9b 3d db 21 c2 bc
       0.09364248 -0.10830851 0.075879544 -0.023697784
000280 0a 6d 95 bd 03 48 63 3b 15 05 5d bd 1e 03 99 bc
       -0.07296188 0.0034680374 -0.053959925 -0.018678244
000290 56 df 8e 3d 47 52 22 bd 07 a3 d8 bd 89 ad 28 bd
       0.06976192 -0.039629247 -0.1057797 -0.04118112
0002a0 33 70 e6 bd 60 66 70 bd 21 64 8b 3d 09 7b c0 3d
       -0.11251869 -0.058691382 0.068062074 0.09398467
0002b0 26 30 4b 3d 40 62 02 3e fa ae 26 3d 20 30 bd 3d
       0.049606465 0.12732792 0.040694214 0.09237695
0002c0 61 4b 77 bd 6a 04 c6 3d c5 a4 01 bd c7 04 a8 3d
       -0.06037462 0.09668811 -0.031651277 0.08204036
0002d0 0d c3 f8 bd c6 9c e2 3d eb 5c 3d 3e e0 b9 66 3c
       -0.12146578 0.110650584 0.18492477 0.014082402
0002e0 e2 f6 4e bc d9 ec db 3c 8d 20 82 3d d0 fc 28 3e
       -0.012632104 0.026846336 0.06353865 0.1650269
0002f0 7e 72 04 be 63 2d ee bd 02 c9 32 3d 87 56 ac 3d
       -0.129343 -0.116297506 0.043648727 0.08414941
000300 02 92 16 3e 3b ba 25 3d ca 41 02 3e 7b 58 83 bd
       0.14704135 0.040460806 0.12720409 -0.06413361
000310 27 8b 7b 3d 17 43 05 3e a2 26 79 3d 25 c6 b9 3d
       0.061412003 0.13013874 0.06082786 0.09070996
000320 d4 74 d7 3c 3c 4f 06 bd 3c 85 15 3d a2 c0 4c 3d
       0.026300825 -0.032790408 0.036504015 0.049988396
000330 57 22 dd 3c 24 b8 ab bb 96 3f 90 bd 38 f2 89 3c
       0.026993914 -0.005240457 -0.07043378 0.016839132
000340 e3 51 1f 3d 71 19 9a bd 08 15 aa 3d 76 2e a0 bd
       0.038896453 -0.07524384 0.08304793 -0.07821362
000350 cc 46 d7 3d 78 68 be bd c1 4e d2 bd fe b8 0c be
       0.1051155 -0.092972696 -0.10268927 -0.13742444
000360 cc b1 ec 3b 4a ad 44 bb 14 1c cb bd 75 de 50 3d
       0.0072233435 -0.0030010515 -0.09917465 0.0509934
000370 0a b3 b3 3c 2d aa b5 3d a8 6b 62 3e 79 b3 28 3d
       0.021935958 0.08870349 0.2211138 0.041186783
000380 a9 7a 43 3d 4d 4e 4e bd ae 46 2d bd e2 a8 59 bc
       0.0477244 -0.050367642 -0.042303734 -0.013284894
000390 03 d3 f6 3d 44 01 80 3d 24 fb 21 3c f9 1b 54 bd
       0.12051966 0.062502414 0.009886537 -0.05178449
0003a0 eb 8b 96 be c4 17 b2 bd 80 3d aa 3c f4 26 ae bd
       -0.29403624 -0.08695939 0.020781279 -0.085035235
0003b0 61 d7 21 bd 55 44 81 be 33 45 ee bc a4 ea 38 3d
       -0.039512042 -0.25247446 -0.029085731 0.045145646
0003c0 de 15 f1 bd 54 63 96 bb 35 e2 20 be 67 2f ef 3c
       -0.11771749 -0.0045894776 -0.15711291 0.029197408
0003d0 1e 0a d5 bd f6 72 17 be 26 f8 ea bd 4b 9f 80 3d
       -0.1040232 -0.14789948 -0.11473112 0.06280383
0003e0 58 23 90 3d 1c 5b c3 3d 70 ab 62 3c d9 e4 69 bd
       0.07037991 0.09538862 0.013834819 -0.05710301
0003f0 35 cd 8f bd 43 bb 02 be 63 dd 9f 3d 41 b2 16 3d
       -0.07021562 -0.12766747 0.07805898 0.03679109

CNN_org/conv2d_6/BiasAdd;CNN_org/conv2d_6/Conv2D;CNN_org/conv2d_6/BiasAdd/ReadVariableOp/resource f4 [5]
000000 d8 56 81 bd ff 44 d0 bb 53 8a f3 3d 26 ff 0f bd
       -0.06315392 -0.006355881 0.118916176 -0.035155438
000010 a9 1c 02 3d
       0.031765614

CNN_org/conv2d_7/BiasAdd;CNN_org/conv2d_7/Conv2D;CNN_org/conv2d_7/BiasAdd/ReadVariableOp/resource f4 [10]
000000 bd 30 2a bc 17 68 d1 3c f9 65 50 bb 00 00 00 00
       -0.010387597 0.02556233 -0.0031799062 0.0
000010 d1 70 72 3d ae e7 9d 3d 00 00 00 00 75 34 f1 3c
       0.05918962 0.07710205 0.0 0.029443959
000020 d9 28 9d 3c 00 00 00 00
       0.019184517 0.0
