har_cnn/model_m123.tflite (tflite, 10716 bytes, 6 tensors)

CNN_m123/conv2d/Conv2D f4 [5, 5, 5, 1]
00000000: 0263 08bd c741 bc3d c02f 6c3d b6f6 1b3e
00000010: 5207 f63d 4930 76be 5e2e 85be c631 fc3d
00000020: c269 e2bd 5d51 65be 37c7 113d 9685 1fbd
00000030: 1334 543d 1b55 03bb 42f8 ec3d f038 15be
00000040: b78b b23d 79a2 a13d bc96 123e 6257 353e
00000050: c771 22be 60c7 97be ec4c e8bd 5078 ee3d
00000060: 77b3 3c3e 6bd4 173e 08a3 4cbd d252 58be
00000070: e724 e73d 1077 78bd 8640 883e 5ac4 42bd
00000080: 0fa2 143e 3b1a 1f3e 6532 303e 1fae 2abe
00000090: 8c2e 2e3e 07be 2b3e bde4 233e 4d5b 83bd
000000a0: 81e0 73be d542 49be 5952 b7bd b3c4 863d
000000b0: de11 84be 9d82 a63d d9d8 0a3b 3ea1 403e
000000c0: c77e 553e 8e6d 773e 47dd fd3d b31a c43d
000000d0: 9674 1b3e ab3f 20be 347b eb3d 5415 2e3e
000000e0: ab50 4bbd d9a8 3d3e dddc 81bb 56a4 2ebd
000000f0: aa78 cc3d a4c8 adbc accf 92bc 6953 05be
00000100: 917c 8abd 380c 86be d56a 45be e538 eb3c
00000110: 7922 9fbe babc a1be 5197 4e3d b566 823e
00000120: 9899 8fbd 1e61 4d3e d61c d5bd 1bd0 443e
00000130: 0bb7 00be c5c0 473c 4187 f93c 06f6 9f3c
00000140: cc15 1fbe 7c56 753e c8d5 6a3e 28ee 85be
00000150: 9f55 8fbe 1479 1a3e 86ba cb3d 2ce8 a73d
00000160: 0df2 78be 9df9 343d 001e 5a3b 09cb fbbd
00000170: a8ed d8bd 098d 4e3d 4762 cfbd 3dd5 8d3e
00000180: a96e 2f3e 59e7 853e d809 3a3e 4c88 b0bd
00000190: e046 72bc 99f4 153e e8b5 fabc 1bd5 9a3d
000001a0: 5175 aa3d 10f3 fb3d a0d4 1dbe dd83 da3d
000001b0: 53d9 a73c e704 443e d3f0 f1bd 71a3 54be
000001c0: a056 32be 6822 8a3b b8d6 3ebe b647 9bbe
000001d0: 4391 b5bc d3de 1dbe 6efa 87be ddfc 32be
000001e0: 2066 47bd 4968 a13d 6863 f7bc 7cf3 29bd
000001f0: 81cd 3ebd
-0.033297546 0.091922335 0.057662725 0.15230832 0.12013115 -0.24041857 -0.26011938 0.12314181
-0.11055328 -0.22394319 0.035590377 -0.038945757 0.051807474 -0.002003974 0.11570789 -0.14572501
0.08718055 0.07892317 0.14315313 0.17709115 -0.15863715 -0.296443 -0.11342797 0.116440415
0.18427835 0.14827125 -0.049960166 -0.21125343 0.112863354 -0.06066042 0.26611727 -0.047550537
0.14514945 0.1553735 0.17206724 -0.16667984 0.17009944 0.16771708 0.16005225 -0.064138986
-0.2381611 -0.196544 -0.089512534 0.06580486 -0.25794882 0.08130381 0.002118638 0.18811509
0.20849143 0.24162886 0.12395721 0.09575405 0.15181193 -0.15649287 0.114981085 0.17000324
-0.049637478 0.18521442 -0.0039630965 -0.04263719 0.09983952 -0.021213837 -0.017921291 -0.130201
-0.067620404 -0.26181197 -0.19279034 0.028713653 -0.31080988 -0.315893 0.050437275 0.25468984
-0.070117176 0.20056579 -0.10405891 0.19220011 -0.12569825 0.012191956 0.030460002 0.019526493
-0.15535659 0.23958772 0.22933114 -0.2615826 -0.2799501 0.1508525 0.09947686 0.0819858
-0.24311085 0.044183362 0.0033282042 -0.12294585 -0.10592204 0.05042747 -0.10126167 0.2770175
0.17132057 0.26153067 0.18167818 -0.086197466 -0.014787406 0.14644088 -0.030604318 0.07560178
0.083231576 0.1230222 -0.15413141 0.10669682 0.02048937 0.19142495 -0.11813512 -0.20765473
-0.17415857 0.0042155273 -0.18636596 -0.3032815 -0.022163993 -0.15417032 -0.2655825 -0.17479272
-0.04868138 0.07881219 -0.030198768 -0.04149197 -0.046582703

CNN_m123/conv2d_1/Conv2D f4 [10, 5, 5, 5]
00000000: 52c2 1e3c c580 17bc ff97 9bbc 511f a6bd
00000010: c5a4 813d 3d0f d3bc 6869 a4bd 5cc4 063a
00000020: 3437 a1b9 cc6e ac3d e213 0dbc b5d7 0abd
00000030: 968e babc b05f 903b 6580 acbd f88b 653d
00000040: c09d 0ebd 594e 2d3c 3f50 9f3c 79fe 90bd
00000050: e056 e0bc 985a bd3b f46d a7bd fb12 00bd
00000060: f39a 95bd 3fd2 8ebc 1f03 28bd a877 9cbd
00000070: 8427 0a3d e704 49bb e50b 733c fb15 7c3d
00000080: 89e4 07bd 97ce 7d3c ffb0 26bc 81bf de3b
00000090: 8d7a 95bd f3e8 953d bb76 d23d 42fa 97bd
000000a0: fe68 5b3d e49c 6cbd 97d7 de3c c947 89bd
000000b0: 861d a4bd 9b7d 82bd f66f c9bc 9053 c9bb
000000c0: a015 aa3c 057e c63d 0256 7c3d 8204 3cbd
000000d0: 6f37 f83c d4b1 3cbd 728f 9b3d c6df 8b3d
000000e0: 4bae 07bd 5390 21bd 4b9c 3bbd 05a5 33bc
000000f0: 4ea7 3ebd 14e9 87bd 1c39 a0bd c5f3 65bd
00000100: 398c 97bd f4ea f9bc 9ecb 293d 636e 84bd
00000110: 92d2 9fbd 87f3 043d 89f0 ac3d 5bef 96b9
00000120: dfd0 78bd 4a32 79bd 4dbe f53b 02ae d63d
00000130: 85ef 19bd 0b7f 003d dc14 8e3d 1c5c b4bc
00000140: 4399 34bd 6942 283d e1b5 013b c84f 46bc
00000150: e4b2 2bbd dfdc 3cbd 77ca 1abc 228d 90bd
00000160: b6c5 c63d af97 a9bd 3d77 d23d 0ff2 503d
00000170: 6144 233d 897c 7d3d 288e d93c 7894 5a3d
00000180: b8b2 b93d 908e 12bd 41e9 86bd 48b9 2f3d
00000190: 47ea c93d 15e3 4b3d 1853 80bd e6f4 05bd
000001a0: 2f18 a4bd 19d6 a23d 70a6 4f3b b895 ddbc
000001b0: 57c8 2e3c 7d23 64bc ca13 423d 4beb 283c
000001c0: 31f5 9f3c c1c3 aebd ca77 2a3d ad1c 87bd
000001d0: 400f 0bbd 3934 093d 75f8 aebc 8ab6 94bd
000001e0: 8c38 91bc 1d23 18bd fbd0 873c 9b37 053d
000001f0: 862e 8a3d f3fb 33bd df6e 973d 4369 203d
00000200: 0562 03bc d80a b8bd ce64 173d 1928 743d
00000210: f330 98ba eb74 89bd 27b9 81bd 645e cebc
00000220: 60b5 50bd d35c 9bbd c2e1 3cbd d19b b33b
00000230: e67b 14bd 91da a5bb 0ab8 a73d 1c2a c5bd
00000240: 9ac7 473c 6177 79bd 805b 363d 3e93 703d
00000250: c5d6 2a3d b0dc 263d 25b4 37bc a90e 27bd
00000260: 2f3d 98bd 5bf1 19bc 71c5 353d e10f 7abd
00000270: 5e12 033d e133 8cbc b72e b2bd 67dc 523d
00000280: 4c0c 173d 71fa b63c f946 ca3c 5dca 09bd
00000290: b8fb 973c b615 403d 750f 69bc 8513 ef3d
000002a0: 78b7 883d b9f8 aabc c89e 003d aa60 413d
000002b0: 155a e6bc 2716 1f3d f2a9 433d 89c8 2fbc
000002c0: 7559 95bc b88a 44bd 01b9 b2bd 4c74 41bd
000002d0: d118 8c3d e667 a7bd d508 c3bc 2b63 50bd
000002e0: 5bac 193b 9117 0f3d 69e2 053c 57fa 9a3d
000002f0: b550 54bd a838 9dbd c6e9 8a3d 801b 0f3c
00000300: 6b3f 44bd cff1 9d3d eb5d e03c f9b1 d93c
00000310: 7e55 b53c 6609 e5bd 4f5e 76bd f08e a3bc
00000320: 889b 79bc 71ef 64bd b23f c8bd d3e6 82bd
00000330: 8e70 9dbc b46d 57bd cb2c 983d b698 8e3d
00000340: 01fd 6cbd 7d48 abbd 4e0d 4fbc b603 82bd
00000350: ea5e 0cbd 6dde 613d a7d2 033d e141 853d
00000360: ef32 1e3d 6fdc a0bb f2dc ebbb 74b1 a6bd
00000370: 8677 b4bd b4b3 b0bd 1047 323d df2c 4c3d
00000380: 37c0 213d c8b3 eabc b5de 20bd 1603 bebc
00000390: 9045 3fbd 7715 43bd b7a0 083c 9c8e f8bc
000003a0: b1a1 96bd 567b 963d 6b79 bf3c 461a 83bd
000003b0: d8b1 7abb 288f 8f3d 7bbe e1bc 8827 47bd
000003c0: 64c1 4f3d 010c 8e3d 5181 7b3d 3258 cbbd
000003d0: c567 18bd fd7d a63d cd54 27bc c634 87bd
000003e0: 1135 93bd 3661 6a3d b115 02bb fe24 f9bc
000003f0: b1e0 513d 0794 953c f753 a33d 92f1 cabc
0.009689884 -0.00924701 -0.018993376 -0.08111442 0.063302554 -0.025764102 -0.08027917 0.0005140954
-0.00030749443 0.0841957 -0.008610697 -0.03389712 -0.022773068 0.004405938 -0.08422927 0.056041688
-0.03481841 0.010577762 0.019447444 -0.07079787 -0.027385175 0.005778622 -0.08175269 -0.0312681
-0.07304945 -0.017434238 -0.0410186 -0.0764001 0.03372909 -0.0030673088 0.014834379 0.0615444
-0.033176932 0.015491149 -0.010174035 0.0067977314 -0.07298765 0.07319822 0.10276552 -0.0742078
0.053566925 -0.05776681 0.02720241 -0.06703145 -0.08013444 -0.063716136 -0.02458952 -0.0061439946
0.020762265 0.09692005 0.06160546 -0.045902736 0.03029987 -0.046068028 0.075957194 0.06829791
-0.033125203 -0.03944428 -0.04580335 -0.010964637 -0.046546273 -0.06636253 -0.07823393 -0.05614068
-0.07399792 -0.030507542 0.04145395 -0.06466367 -0.07803835 0.03245881 0.08444316 -0.00028788563
-0.06074607 -0.060838975 0.0074994923 0.10482408 -0.03758194 0.031371158 0.06937572 -0.022016577
-0.044091474 0.04107896 0.0019792246 -0.012103982 -0.04191865 -0.046109077 -0.009447685 -0.07058169
0.09705679 -0.082808845 0.10276649 0.051012095 0.039860133 0.061886344 0.026557043 0.053364247
0.09067291 -0.03578049 -0.065874584 0.042901307 0.09859138 0.04977711 -0.06265849 -0.032704256
-0.08012425 0.07950992 0.0031684898 -0.02704893 0.010667882 -0.013924477 0.047382154 0.010310004
0.019526096 -0.08533431 0.041618146 -0.06597266 -0.03395009 0.03349707 -0.021358708 -0.07261379
-0.017727159 -0.03714286 0.016579142 0.032523733 0.06747155 -0.04394145 0.07394194 0.039162885
-0.008018975 -0.08986443 0.03696137 0.059608553 -0.0011611268 -0.067117535 -0.06334143 -0.025191493
-0.050954223 -0.07586064 -0.046113737 0.0054812212 -0.03625097 -0.0050614555 0.081893995 -0.09627172
0.012193585 -0.060904864 0.044520855 0.05873417 0.041708726 0.040737808 -0.011212383 -0.040785465
-0.07433545 -0.0093959225 0.044377748 -0.0610503 0.03199994 -0.017114582 -0.087003164 0.051479723
0.03687696 0.022336217 0.024692046 -0.033640254 0.018552646 0.046895705 -0.014224877 0.11673645
0.06675619 -0.020870553 0.031401426 0.047211327 -0.028119126 0.038839485 0.047769494 -0.010728964
-0.018231133 -0.047983855 -0.08726693 -0.04723005 0.06840671 -0.08174114 -0.023807922 -0.050875824
0.002344868 0.034934584 0.008171656 0.0756728 -0.05183478 -0.07676822 0.0678287 0.008734584
-0.047912043 0.07712137 0.027388534 0.026574122 0.022135492 -0.11183433 -0.060148533 -0.019965619
-0.015234835 -0.05589241 -0.09777774 -0.063916825 -0.01921871 -0.052594855 0.074304186 0.06962721
-0.05785847 -0.083634354 -0.012637449 -0.06348364 -0.034270205 0.055143762 0.032183316 0.06506706
0.038622793 -0.00490909 -0.0071979696 -0.08139315 -0.0881186 -0.08628026 0.0435248 0.04984748
0.03948995 -0.02865018 -0.03927489 -0.02319483 -0.0466972 -0.047627892 0.008339099 -0.030341439
-0.07355059 0.07347743 0.023373326 -0.06401496 -0.0038252976 0.07009727 -0.027556648 -0.048621684
0.05072154 0.06935883 0.061402623 -0.09928931 -0.037208337 0.08129499 -0.010213089 -0.066018626
-0.07187856 0.057221614 -0.0019849355 -0.030413147 0.051239673 0.018259062 0.079749994 -0.024773393

CNN_m123/conv2d_2/Conv2D f4 [6, 3, 3, 10]
00000000: 3f46 06be ddd3 50bc 15fd 40bd e66d 753d
00000010: 74b3 22bd afe2 383c 32a2 8f3d 1c55 423d
00000020: 9fe0 5fbd cabd e53c 249c eebd fe7a cebd
00000030: 404a c03d 71b9 a4bd c330 a2bd 7e49 afbd
00000040: 0a0d c93c d264 6e3d c0ee 953d 0289 13bb
00000050: 93fd a3bd d38c 51bc d22d 1d3b a5e1 d43d
00000060: 0a2b e9b8 e4a3 3cbd b238 ed3d 0831 82bd
00000070: eb72 cb3a 4746 c5bd f6fe 3a3d e547 5f3d
00000080: 9605 85bd 7656 73bd a79a 29bd 8744 0d3e
00000090: 43cf 023e 004c a23d 6d59 273d 451c abbd
000000a0: 3c6f 07be ee84 073c 6b60 87bd 35d3 be3d
000000b0: dbc9 823d d054 9f3c 6b8f 1d3e 7355 513d
000000c0: 3a07 7b3d 198a 7fbd 5a00 0ebd 7dcd f03d
000000d0: 6b0e 8c3d 630b 7c3d 297d ca3d 81b1 c13d
000000e0: d7b2 2d3e 1fc9 16bd 1f79 083d bffa d8bd
000000f0: 028c 823d 389d ed3d 1b25 0f3d 2662 6a3c
00000100: cc7b 203d 18d7 093e 1066 9c3d 615c b3b8
00000110: 7348 13bd 187b 203d 592e 71bb 6630 e9bc
00000120: f016 733d 353a 3a3c 622b bdbd ecb1 ac3c
00000130: 3922 303d a45b febd 2fc9 a5bd 5d4b 44bd
00000140: 3954 02bc 67bb db3d 2d75 b43d 8e64 ab3c
00000150: 8c47 ab3d 83c1 ba3d 80a2 03bb 7d4f 57bd
00000160: 1192 df3c 5b20 f6bd 3906 ecbb eeb1 7bbd
00000170: 7103 b3bd c563 5e3d 15c6 39bd 4716 58bd
00000180: 4ef9 673d d2d2 57bd 7c4b 27bd 3b37 ab3c
00000190: 9f5b 4bbd 8644 49bc 4712 9cbd a931 d1bd
000001a0: 06ad f73c 837b 0c3e edd0 c3bd 25de 26bd
000001b0: 9171 e2bd 0d9f 90bc 7ade 91bd 3162 d03d
000001c0: 49c7 b3bd 965e c73d eb18 973d 935d 463d
000001d0: 519e 24bd 5b64 b2bd 5754 14bd 6f96 bfbc
000001e0: 9a9f 953c 2302 8d3d 32d2 9bbb a0fb 003d
000001f0: 1045 893c c686 cc3d 7b1d fa3d 3619 44bd
00000200: aed6 19be eb01 f73d 1d63 953d 042f e63c
00000210: f300 1abc 37ff 003e ab7b 823d 7a1f c3bc
00000220: 42b0 213d 779c a9bd a704 24be 638e cebc
00000230: 4385 54bc 63c9 8f3d 8878 87bd 22bb ce3d
00000240: d3d1 d3bc b2da 073e 8e93 703d da70 0dbe
00000250: d87e 27be b3a7 843d 949f b33d 24eb 40bd
00000260: 9204 66bd 9729 c13d 9bf8 06bd 2306 8c3d
00000270: aed1 fa3d 20b1 a9bc d627 edbd 4810 263d
00000280: bd37 6bbd 54af d43d 3b34 b1bc 14d8 993d
00000290: 172c a6bd a6c3 94bc 3538 183d c589 08be
000002a0: 6f89 febd e0f4 c53d d383 4b3c 681c ac3d
000002b0: ccc4 e5bc 561d f4bc 4c85 c5bd c00d 0b3c
000002c0: 48bf bebc cbb6 f4bd 44b9 d8bc 1f94 083e
000002d0: 333e a2bd b054 953d ebc7 d93c 57b1 a83c
000002e0: 856e 4ebd 8ece 82bd 784f 9fbd 81a2 293d
000002f0: 4f01 053e f15e e43c 30aa aabd a29d 93bd
00000300: 4a5a aabd 7228 13bc 0a7d 5cbd fc39 c9bd
00000310: e157 9cbd a2f8 0fbe 942b 463e 2430 073d
00000320: 594d 763d 683b b83d 7058 483d 3e91 e03d
00000330: 1a5a 99bd 90bb 05bd 056d 47bc 1f2d e6bd
00000340: 5d6a 0a3e 74a9 4b3d 0f46 b0bd 6e1a bdbd
00000350: 634b 213c 4c75 4f3d 765d b33d 00cf 913d
00000360: 36cf f3bd b9e8 f1bc c1f1 583e c00f 803d
00000370: 1457 92bd 57ff 41bd 04c9 6fbd 77c1 f9b9
00000380: e131 c13c 8056 a03d ef63 1fbd dc8a d5bd
00000390: 4b35 213e 58ed b43d 13c7 93bd cda1 803d
000003a0: 47c7 30bd cc8e b139 d85b d3bd 2a8f 67bd
000003b0: 71bb a33b 07cf f2bc cbf1 333e 2ebf a2bb
000003c0: e428 30bd c6f3 ca3c a3b8 cabd 50c2 cd3b
000003d0: bbf9 503d c585 a839 8348 e7bd 60d8 f23d
000003e0: 83b8 603d 1d14 c73d 748d 06bd 3879 e5bd
000003f0: bc94 ae3d 29fd bab9 fa60 073d 8d6a 2bbc
-0.13112734 -0.012745825 -0.047116358 0.05991926 -0.03972192 0.011284514 0.07013358 0.047444448
-0.054657575 0.0280446 -0.11650875 -0.10082053 0.09389162 -0.08043183 -0.07919457 -0.085589394
0.02454235 0.05820162 0.073209286 -0.0022512083 -0.0800735 -0.012789923 0.002398361 0.10394601
-0.000111183224 -0.046054736 0.115830794 -0.06357008 0.0015521919 -0.09632545 0.045653306 0.054511923
-0.06495206 -0.059408627 -0.041407254 0.13795672 0.12774377 0.07924652 0.040856767 -0.08355001
-0.13226026 0.008271439 -0.06610187 0.09317628 0.06386157 0.019449621 0.15386741 0.05110688
0.06128619 -0.06238756 -0.034668304 0.11757944 0.068386875 0.061534297 0.09887154 0.09457684
0.16962753 -0.036812898 0.033318635 -0.10594701 0.063743606 0.11602253 0.034947496 0.014305627
0.039180562 0.13460958 0.076366544 -8.552592e-05 -0.035957765 0.03917989 -0.0036801307 -0.028465461
0.059348047 0.011366417 -0.0923679 0.021080934 0.043001387 -0.12419823 -0.08095013 -0.047923435
-0.007954651 0.107291035 0.08811412 0.020921972 0.08363256 0.09118941 -0.0020085871 -0.05256604
0.02729133 -0.1201789 -0.0072028902 -0.061448984 -0.08740891 0.054294366 -0.04535492 -0.05275562
0.05663424 -0.05269129 -0.040843472 0.02090036 -0.049647924 -0.012284404 -0.076206736 -0.1021455
0.030233871 0.13718991 -0.09561334 -0.040739197 -0.11056817 -0.017653966 -0.07122512 0.101749785
-0.08778245 0.09734838 0.073777996 0.048429083 -0.040190045 -0.087105475 -0.036213245 -0.023387162
0.01826458 0.06885173 -0.004755282 0.03148997 0.016756564 0.099866435 0.12212654 -0.047875606
-0.150233 0.12060913 0.07294295 0.02809859 -0.00939964 0.12597357 0.06371244 -0.02381872
0.039474733 -0.082817964 -0.160174 -0.02521438 -0.012971225 0.07020833 -0.066147864 0.100942865
-0.025856888 0.1326702 0.05873447 -0.1381258 -0.16356981 0.064772986 0.087706715 -0.047099248
-0.056156702 0.09431761 -0.032951932 0.06837108 0.122470245 -0.020714343 -0.11579864 0.04054287
-0.057426203 0.10385004 -0.02163135 0.07511917 -0.08113878 -0.018159699 0.03716298 -0.13333805
-0.12428557 0.09665847 0.012421566 0.084038556 -0.028047942 -0.029799145 -0.09644565 0.008487165
-0.02328457 -0.119489275 -0.026455529 0.13337754 -0.0792202 0.072915435 0.026584586 0.020592375
-0.05039837 -0.063870534 -0.07778829 0.04141474 0.1298878 0.027877303 -0.08333242 -0.072078004
-0.083180025 -0.008981811 -0.053830184 -0.09825513 -0.07633949 -0.1405969 0.19352561 0.033004895
0.06013236 0.08995706 0.048912466 0.10965203 -0.07487889 -0.032649577 -0.012171988 -0.11239075
0.13517137 0.04972215 -0.086071126 -0.09233557 0.009844634 0.050648972 0.08758061 0.0711956
-0.11904757 -0.029529916 0.21185972 0.06253004 -0.07145515 -0.04736265 -0.058541313 -0.00047637123
0.023583354 0.078289986 -0.038913663 -0.10426876 0.15742986 0.08834332 -0.07215705 0.06280861
-0.043158796 0.00033866463 -0.10320252 -0.056533016 0.00499671 -0.029639734 0.17572705 -0.004966638
-0.043007746 0.024774443 -0.09898498 0.0062792674 0.05101941 0.00032143123 -0.112931274 0.118576765
0.054863464 0.09720633 -0.032849744 -0.11204761 0.085244626 -0.00035665304 0.03305147 -0.010462415

CNN_m123/conv2d/BiasAdd;CNN_m123/conv2d/Conv2D;CNN_m123/conv2d/BiasAdd/ReadVariableOp/resource f4 [5]
00000000: 747e 1fbd d65b 47be 065b 0ebd 6e62 42be
00000010: a7c1 8a3d
-0.038938954 -0.19468626 -0.034754775 -0.1898286 0.067752175

CNN_m123/conv2d_1/BiasAdd;CNN_m123/conv2d_1/Conv2D;CNN_m123/conv2d_1/BiasAdd/ReadVariableOp/resource f4 [10]
00000000: 8692 2e3c 4e62 13bd 2d61 233d b8c7 0fbc
00000010: 4b81 813d 20dc 57bc d770 88bd c1aa 443d
00000020: c825 f13d 3fc7 9cbd
0.010655051 -0.035982423 0.039887596 -0.008775644 0.06323489 -0.0131750405 -0.066621475 0.048014406
0.11774784 -0.07655191

CNN_m123/conv2d_2/BiasAdd;CNN_m123/conv2d_2/Conv2D;CNN_m123/conv2d_2/BiasAdd/ReadVariableOp/resource f4 [6]
00000000: 10cf b7bd 7815 823d 047e d23d dcc7 3a3d
00000010: 103b 783c 9030 fc3d
-0.08975041 0.06351751 0.10277942 0.045600757 0.0151508 0.1231395
