har_cnn/pretrained-real-data/10to100_various.pth (torch_old, 8971 bytes, 6 tensors)

conv1.weight f4 [5, 1, 5, 5]
0.2885806 0.35676235 -0.2056117 -0.08475181 -0.052962214 -0.16528204 0.098152265 -0.038934376
-0.10080172 0.3516804 0.0763765 0.009173232 0.17309807 -0.14688036 0.053616244 -0.02925176
0.120331295 0.10794824 -0.012221958 -0.08093181 -0.120990485 -0.048073515 0.031212509 -0.025417777
0.139654 0.2838955 0.10667596 0.24186811 -0.1057606 -0.05213015 -0.039612684 0.17258526
0.31608722 0.5361575 -0.12618686 0.06280078 0.082167245 0.18719386 -0.010589917 -0.11895558
0.18671651 0.14171767 0.20865728 0.00970666 -0.00030592867 0.09834992 -0.022533145 -0.041564092
-0.32378277 -0.107713394 0.037296433 -0.04194233 -0.10894299 0.007006118 -0.0045594987 -0.21732533
-0.25074977 -0.13692358 -0.31378016 -0.3501979 -0.17115012 0.042413153 -0.34758005 -0.104338504
-0.29288453 -0.026706759 -0.034815438 0.08628984 -0.11975367 -0.0643143 -0.08060763 -0.020972004
0.0015286282 0.010861147 0.05916649 -0.2481089 0.06633372 0.07832321 0.13969927 -0.09537903
0.060587753 0.14237851 0.01261799 0.051875755 0.2304236 -0.2047527 -0.00319412 0.021203153
-0.09229363 -0.11638793 -0.055944238 -0.044916894 -0.26013842 0.08802572 -0.45648476 0.21960595
0.07947489 -0.12650016 -0.34736606 0.052648693 0.06827446 -0.03867713 -0.13411856 0.019118637
0.014118645 -0.119694605 -0.13272925 -0.020161945 0.036893584 -0.09251659 -0.23844688 -0.1305668
-0.069446094 -0.05086149 -0.07776388 0.3416717 -0.19596423 -0.042758558 0.03334083 -0.19911657
0.15577225 0.12100412 0.012765923 0.36783847 0.37131846
00000000: d6c0 933e 8ea9 b63e e08b 52be 5b92 adbd
00000010: e8ee 58bd b23f 29be 0e04 c93d a779 1fbd
00000020: 2271 cebd 740f b43e 486b 9c3d 534b 163c
00000030: 9f40 313e ce67 16be b59c 5b3d 63a1 efbc
00000040: 4170 f63d f813 dd3d 9b3e 48bc 94bf a5bd
00000050: dcc9 f7bd bce8 44bd 60b1 ff3c f138 d0bc
00000060: 7501 0f3e c05a 913e ed78 da3d 46ac 773e
00000070: 0399 d8bd 6d86 55bd e940 22bd 31ba 303e
00000080: 2fd6 a13e 9e41 093f 2137 01be b29d 803d
00000090: 4d47 a83d bfaf 3f3e 5581 2dbc fc9e f3bd
000000a0: 9d32 3f3e 701e 113e 41aa 553e af08 1f3c
000000b0: 0d65 a0b9 af6b c93d 6e97 b8bc 1c3f 2abd
000000c0: dbc6 a5be d798 dcbd 25c4 183d b8cb 2bbd
000000d0: 811d dfbd 9493 e53b d967 95bb 888a 5ebe
000000e0: 4662 80be b235 0cbe cba7 a0be 244d b3be
000000f0: fa41 2fbe 6ab9 2d3d 03f6 b1be 6daf d5bd
00000100: f6f4 95be 22c8 dabc a29a 0ebd bab8 b03d
00000110: 6a41 f5bd 37b7 83bd 9d15 a5bd 7bcd abbc
00000120: 405c c83a f4f2 313c 9058 723d 4210 7ebe
00000130: f9d9 873d eb67 a03d 530d 0f3e 1556 c3bd
00000140: dd2a 783d accb 113e b0bb 4e3c ac7b 543d
00000150: 2af4 6b3e b1aa 51be 7154 51bb 3cb2 ad3c
00000160: 7104 bdbd cc5c eebd c925 65bd c7fa 37bd
00000170: dd30 85be d446 b43d 5fb8 e9be 62e0 603e
00000180: bbc3 a23d 4289 01be f7d9 b1be 28a6 573d
00000190: 7bd3 8b3d e96b 1ebd 6056 09be b09e 9c3c
000001a0: e451 673c 7222 f5bd 2dea 07be aa2a a5bc
000001b0: ba1d 173d 5779 bdbd 6b2b 74be 4eb3 05be
000001c0: c139 8ebd 2354 50bd ab42 9fbd 98ef ae3e
000001d0: d9aa 48be 9923 2fbd 6590 083d 37e5 4bbe
000001e0: c382 1f3e 02d1 f73d 2928 513c 5355 bc3e
000001f0: 741d be3e

conv1.bias f4 [5]
-0.3401311 -0.059942916 -0.20038931 -0.06561165 0.13796784
00000000: aa25 aebe b486 75bd db32 4dbe 675f 86bd
00000010: 7147 0d3e

conv2.weight f4 [10, 5, 5, 5]
0.07020094 -0.002587924 0.009838473 0.007206348 0.026947627 0.012469406 0.05897361 0.16480877
0.01722431 0.0695286 -0.0065547433 0.13275307 0.0060222144 0.04726376 0.10676831 -0.06806485
-0.023880394 0.12645122 0.021115188 -0.06448779 -0.0010326816 -0.006709877 0.06754114 0.086508654
0.07749808 -0.1268617 0.026086142 0.055530317 -0.0980791 -0.09628959 -0.006021818 0.033373024
0.17100537 0.0648175 0.0068470505 0.02078951 -0.03154807 0.007401819 -0.13091557 -0.16773336
0.06405495 0.103169516 -0.03697237 0.014021353 -0.06235004 -0.04626378 0.07921363 0.072651334
0.14136516 -0.032878626 0.04499595 -0.0033713866 0.04551173 -0.028329903 -0.052872255 -0.0036765845
-0.08347705 -0.038110856 -0.051901206 0.036304627 -0.15783127 -0.02858614 -0.051367003 0.05189689
-0.018871665 0.018348094 -0.09339449 -0.06474766 -0.024451807 -0.012619786 0.078908995 -0.002143732
-0.044126753 0.08686839 -0.03094242 -0.10666588 -0.10446828 -0.056280464 0.037689924 0.06048009
0.016140774 -0.007541284 0.028880997 0.013424771 -0.019096874 -0.09283612 -0.015815856 -0.025881661
-0.08305717 -0.009498984 0.14060314 0.03267698 0.06418658 -0.003320121 0.023157533 0.027517507
0.093696356 0.07829968 0.12566572 0.08647593 -0.109254465 0.010405668 -0.000720117 0.03721992
-0.040307436 -0.008773123 0.03861325 0.10334048 0.05009683 0.00038497022 -0.050611444 -0.004171383
-0.028786717 -0.050751366 -0.11670271 -0.11190673 -0.09483567 -0.09263442 0.0602184 -0.11288725
0.058829527 0.20411265 0.03491922 0.058693726 0.047001265 0.06269443 -0.032493062 0.009650125
0.01167723 -0.06261804 -0.026613755 -0.022830814 0.0675907 0.18646657 0.014948215 0.09190074
-0.094131045 -0.06267258 0.00914564 -0.06526764 0.10830799 -0.04298466 0.097022064 -0.013065934
0.043690227 0.072294675 0.027898455 -0.013045493 -0.021065593 -0.050525885 0.018716244 -0.069293074
0.039762657 -0.047442816 -0.1278413 0.047641058 0.019538319 -0.020302746 0.035217136 -0.117411286
-0.0040030335 -0.025820058 0.025828037 0.11088856 -0.15512349 0.046300888 0.087500736 -0.06592382
-0.049383778 -0.053090096 0.08727517 0.22688414 0.035207782 -0.0037860873 -0.027011467 -0.0036882253
-0.059081335 0.055753198 -0.049915414 0.12876867 -0.021928784 0.054244768 0.016019773 -0.0035566408
-0.009995839 0.033527255 0.011208364 -0.009018939 -0.07284328 0.11359308 -0.163743 -0.08555905
0.10011678 -0.035052467 -0.02443079 0.05665671 -0.04300391 0.044877093 0.04628607 0.050559264
-0.0022124292 -0.0058728247 -0.017552417 0.07428268 -0.027913434 0.04613928 0.018787863 -0.044452317
0.04400236 0.012693365 -0.16693732 -0.052756097 -0.11989904 -0.07148137 -0.01954255 -0.022996943
0.19990489 0.0010710795 0.02011766 0.077096015 0.034153406 -0.19370253 -0.08294252 -0.057885084
0.07207016 -0.10513192 -0.119723044 -0.048765544 0.04430103 0.09815745 0.06639992 0.024426607
-0.080811016 -0.09066117 0.02304059 -0.1626176 -0.13154617 -0.040687427 -0.13554196 -0.040364623
0.13985501 -0.037464477 0.09343345 0.013463538 0.047769696 0.004391358 -0.11294902 0.08143945
0.050306685 0.06658344 0.055326488 -0.03372574 -0.04148514 -0.06277869 0.017767115 0.034215525
00000000: 83c5 8f3d 299a 29bb 8c31 213c 3a23 ec3b
00000010: 45c1 dc3c 7b4c 4c3c 508e 713d a1c3 283e
00000020: ff19 8d3c 0365 8e3d 2cc9 d6bb 6cf0 073e
00000030: ff55 c53b a597 413d 58a9 da3d 9665 8bbd
00000040: d1a0 c3bc 6e7c 013e c2f9 ac3c 2d12 84bd
00000050: 0b5b 87ba 87de dbbb 0253 8a3d 732b b13d
00000060: 50b7 9e3d 09e8 01be 9bb2 d53c c273 633d
00000070: b2dd c8bd 7a33 c5bd ac52 c5bb 27b2 083d
00000080: 081c 2f3e 0abf 843d 395d e03b c34e aa3c
00000090: 8d38 01bd f58a f23b bb0e 06be 4bc2 2bbe
000000a0: 3e2f 833d 8a4a d33d 5770 17bd d1b9 653c
000000b0: c162 7fbd 177f 3dbd c13a a23d 39ca 943d
000000c0: 07c2 103e bdab 06bd ac4d 383d 7bf2 5cbb
000000d0: 826a 3a3d 1d14 e8bc 9490 58bd daf2 70bb
000000e0: 04f6 aabd 211a 1cbd 5c96 54bd 29b4 143d
000000f0: 859e 21be 7b2d eabc 3566 52bd d591 543d
00000100: c098 9abc be4e 963c 9c45 bfbd 6c9a 84bd
00000110: 284f c8bc 38c3 4ebc 0a9b a13d db7d 0cbb
00000120: 41be 34bd 0ee8 b13d f57a fdbc a473 dabd
00000130: 77f3 d5bd 5886 66bd c060 1a3d f9b9 773d
00000140: a839 843c e01c f7bb d797 ec3c 92f3 5b3c
00000150: 0c71 9cbc dd20 bebd 4190 81bc c705 d4bc
00000160: e119 aabd a0a1 1bbc 45fa 0f3e 4cd8 053d
00000170: 4174 833d 6396 59bb deb4 bd3c 656c e13c
00000180: e0e3 bf3d 955b a03d 84ae 003e 4b1a b13d
00000190: cec0 dfbd 897c 2a3c 3cc6 3cba ea73 183d
000001a0: 6919 25bd 25bd 0fbc ed28 1e3d 2ca4 d33d
000001b0: 5532 4d3d d4d5 c939 f24d 4fbd 19b0 88bb
000001c0: 1fd2 ebbc aae0 4fbd d501 efbd 5b2f e5bd
000001d0: 3439 c2bd 1db7 bdbd 92a7 763d 6e31 e7bd
000001e0: 3bf7 703d e802 513e 7507 0f3d d568 703d
000001f0: 6684 403d f065 803d 7217 05bd 8f1b 1e3c
00000200: da51 3f3c e33d 80bd 1705 dabc b007 bbbc
00000210: fe6c 8a3d 18f1 3e3e 5ce9 743c 7536 bc3d
00000220: c7c7 c0bd 7b5a 80bd 98d7 153c 0aab 85bd
00000230: 94d0 dd3d af10 30bd 81b3 c63d 8012 56bc
00000240: 86f4 323d 3b0f 943d 4d8b e43c c3bc 55bc
00000250: c091 acbc 3bf4 4ebd cf52 993c 87e9 8dbd
00000260: 2bde 223d 6653 42bd d4e8 02be 4523 433d
00000270: d30e a03c f251 a6bc d83f 103d 5475 f0bd
00000280: e12b 83bb 9684 d3bc 5295 d33c 8b19 e33d
00000290: b1d8 1ebe 00a6 3d3d 9633 b33d 1103 87bd
000002a0: a546 4abd 0075 59bd 53bd b23d 5154 683e
000002b0: 0936 103d 0120 78bb 2747 ddbc 27b6 71bb
000002c0: 45ff 71bd 775d 643d 1b74 4cbd efdb 033e
000002d0: fea3 b3bc c32f 5e3d e63b 833c 8816 69bb
000002e0: 96c5 23bc e053 093d 49a3 373c 2cc4 13bc
000002f0: dc2e 95bd 7da3 e83d 3fac 27be 9539 afbd
00000300: 070a cd3d 2d93 0fbd 1523 c8bc de10 683d
00000310: de24 30bd 0bd1 373d 7696 3d3d 3b17 4f3d
00000320: 67fe 10bb d370 c0bb 16ca 8fbc 8521 983d
00000330: b7aa e4bc 8bfc 3c3d 01e9 993c a213 36bd
00000340: d23b 343d d5f7 4f3c 9ef1 2abe c716 58bd
00000350: a18d f5bd d364 92bd b317 a0bc 1664 bcbc
00000360: deb3 4c3e 7763 8c3a cacd a43c 84e4 9d3d
00000370: 71e4 0b3d f559 46be c5dd a9bd e918 6dbd
00000380: 8599 933d 674f d7bd 5b31 f5bd 61be 47bd
00000390: ff74 353d c606 c93d aefc 873d 4f1a c83c
000003a0: 3f80 a5bd 90ac b9bd 9fbf bc3c 3a85 26be
000003b0: 0ab4 06be dca7 26bd 83cb 0abe 6055 25bd
000003c0: 2736 0f3e 5a74 19bd 095a bf3d 2c96 5c3c
000003d0: 28aa 433d 61e5 8f3b d151 e7bd bac9 a63d
000003e0: 620e 4e3d e65c 883d 079e 623d 0024 0abd
000003f0: 52ec 29bd 1d92 80bd 578c 913c 9425 0c3d

conv2.bias f4 [10]
0.099064484 0.052615434 0.008455839 -0.065038115 0.07153663 0.054626748 0.08627093 0.071480215
-0.01148366 -0.22452897
00000000: 52e2 ca3d 4883 573d 5c8a 0a3c b432 85bd
00000010: cc81 923d 4cc0 5f3d d0ae b03d 3864 923d
00000020: f625 3cbc ecea 65be

features.weight f4 [6, 10, 3, 3]
-0.012088917 -0.016844906 -0.094831906 0.06502506 0.04823937 -0.09219458 0.08572192 0.0819411
0.044869486 -0.16258323 -0.07420199 -0.09105855 0.009846925 -0.05415058 -0.110370725 -0.023516573
0.033397317 -0.019658191 -0.062209915 0.068047516 -0.09393207 0.06919009 -0.08407387 -0.070805445
-0.064459816 -0.020845924 0.09065022 0.13861926 0.26141006 0.16173092 -0.030549176 0.10624867
0.11015215 -0.2130541 -0.042025723 -0.12010251 0.02361598 0.06353297 -0.0077440054 -0.11954862
-0.04298163 -0.02593129 0.011919385 -0.06694145 -0.1123326 0.018467864 0.07776971 0.06468642
0.06335286 0.05771661 0.058361035 -0.021415586 0.103598095 0.06613282 -0.07712827 -0.1123736
-0.02147452 -0.069104455 -0.111215204 -0.11753212 0.13226354 -0.04600685 0.0054665403 0.087893166
0.013421967 0.09485619 0.07019174 -0.042815506 0.053071253 0.047030833 0.05165971 0.09631548
-0.046622716 0.020044079 0.0766934 -0.042857777 0.021913951 0.07421939 0.02930761 0.089961894
0.09667742 -0.045092136 0.14782983 -0.039177846 0.11240437 0.24799423 0.2124172 0.09828632
0.104925565 0.18771228 0.005038408 -0.05279378 -0.12079982 0.06687187 -0.013293018 -0.1067703
0.07837618 0.14066105 0.10503895 -0.07842642 0.08234295 -0.033839334 -0.083217606 -0.061684832
0.00018301918 -0.032723177 -0.048948344 -0.028295094 -0.02674163 -0.10314384 -0.097554 -0.11514035
-0.1384496 -0.10549643 -0.015921703 0.047673583 0.0036221803 0.007370177 -0.045772344 -0.059900746
0.17182292 0.16111077 0.122183934 0.12601335 0.12802754 0.076947786 0.0067672133 -0.0027239209
0.12241321 -0.05059247 0.062463656 0.066458344 -0.052813817 -0.13093561 0.012385607 -0.13771854
-0.20317125 -0.15924641 0.0021297946 -0.08623947 0.0028679562 -0.051567625 0.13818112 0.01593462
-0.14001557 -0.17561899 -0.0721457 -0.19298014 -0.096868925 -0.23076339 0.008009725 -0.029686566
-0.06382794 -0.049052346 -0.072576836 -0.065506116 0.041892476 -0.008270454 0.076584764 -0.057962887
0.007525196 -0.08955575 0.05651035 0.07274176 0.12081744 0.11549378 0.068977185 0.060026564
0.0743174 0.0930517 -0.00097186473 0.15138376 0.1561703 0.12277257 0.13489726 0.14952537
0.0700086 0.08927206 -0.05151122 -0.060968053 0.1383427 0.2156047 0.07531257 0.17333472
0.08390477 0.10797247 0.08263735 0.004122427 -0.03317102 0.058605984 0.0071990006 0.088848166
0.06811641 0.1137489 0.11913811 -0.06386292 0.08805255 0.035299428 0.004144895 0.13958305
0.13271238 0.08422451 0.057868514 0.12647657 -0.0109908255 0.039387036 -0.089953534 0.012121628
0.08549033 -0.02674129 -0.044980917 -0.047899272 -0.12352995 -0.09581695 0.03331084 -0.083817765
-0.09036783 -0.08473887 -0.04168464 0.08763275 0.025736926 0.042530235 0.013331102 0.10861411
0.031205432 0.014656086 -0.1307764 -0.08644383 -0.20436783 -0.22925617 -0.116599895 -0.13562576
-0.14183162 -0.19857474 0.15185907 0.15316524 0.047678534 0.19738024 0.07783657 0.22727029
0.11947118 0.07707515 0.08834456 0.0045446563 -0.009992005 0.095112614 0.0041844305 0.0058349483
0.03229645 0.04113945 -0.098152645 -0.027717048 -0.048300024 0.04621842 0.026980393 0.028117897
00000000: 9810 46bc 54fe 89bc 3b37 c2bd dc2b 853d
00000010: a596 453d 83d0 bcbd f98e af3d bcd0 a73d
00000020: 11c9 373d 387c 26be 37f7 97bd e87c babd
00000030: ff54 213c 00cd 5dbd 0c0a e2bd d4a5 c0bc
00000040: a0cb 083d 370a a1bc d3cf 7ebd 7f5c 8b3d
00000050: 755f c0bd 89b3 8d3d ec2e acbd 7202 91bd
00000060: 8203 84bd 12c5 aabc d3a6 b93d 35f2 0d3e
00000070: 8ad7 853e ca9c 253e 4442 fabc e798 d93d
00000080: 7397 e13d db2a 5abe 2a23 2cbd 4ef8 f5bd
00000090: 4d76 c13c 931d 823d 6dc1 fdbb e8d5 f4bd
000000a0: 810d 30bd db6d d4bc 8649 433c 9918 89bd
000000b0: a20e e6bd eb49 973c ba45 9f3d 507a 843d
000000c0: 25bf 813d 4168 6c3d fb0b 6f3d bd6f afbc
000000d0: 3d2b d43d a570 873d 6df5 9dbd 2124 e6bd
000000e0: 55eb afbc a386 8dbd ccc4 e3bd aeb4 f0bd
000000f0: 1870 073e ae71 3cbd aa20 b33b 5501 b43d
00000100: cfe7 5b3c f643 c23d b0c0 8f3d 505f 2fbd
00000110: 3e61 593d 67a3 403d 2299 533d 0d41 c53d
00000120: 76f7 3ebd 7b33 a43c 6e11 9d3d a38b 2fbd
00000130: e384 b33c 5600 983d 8316 f03c f13d b83d
00000140: d0fe c53d 88b2 38bd b460 173e f378 20bd
00000150: 4334 e63d 33f2 7d3e e583 593e 574a c93d
00000160: 37e3 d63d a637 403e 3b19 a53b 4a3e 58bd
00000170: e565 f7bd 1ef4 883d f5ca 59bc 63aa dabd
00000180: b183 a03d 7309 103e a91e d73d 089e a0bd
00000190: 6ca3 a83d 1d9b 0abd fe6d aabd 3ca9 7cbd
000001a0: d6e8 3f39 bd08 06bd 0f7e 48bd 1dcb e7bc
000001b0: 4311 dbbc 143d d3bd 64ca c7bd b4ce ebbd
000001c0: bbc5 0dbe 830e d8bd 3b6e 82bc 6045 433d
000001d0: 1a62 6d3b 8781 f13b c87b 3bbd 7c5a 75bd
000001e0: 59f2 2f3e 39fa 243e 923b fa3d a509 013e
000001f0: a719 033e cd96 9d3d 80bf dd3b cf83 32bb
00000200: c7b3 fa3d 0d3a 4fbd e4d9 7f3d 501b 883d
00000210: 4d53 58bd fc13 06be 00ed 4a3c 1706 0dbe
00000220: 200c 50be 7e11 23be 0694 0b3b 529e b0bd
00000230: 52f4 3b3b 9338 53bd 5a7f 0d3e 5289 823c
00000240: 3e60 0fbe 77d5 33be 20c1 93bd 969c 45be
00000250: 3763 c6bd 3d4d 6cbe 393b 033c 3e31 f3bc
00000260: 39b8 82bd 1deb 48bd 2aa3 94bd 1228 86bd
00000270: 7297 2b3d cc80 07bc 79d8 9c3d 7e6a 6dbd
00000280: eb95 f63b 0169 b7bd 6677 673d a2f9 943d
00000290: 226f f73d 0188 ec3d e943 8d3d 6ade 753d
000002a0: b933 983d e491 be3d bdc4 7eba 5804 1b3e
000002b0: 1beb 1f3e 2f70 fb3d 8222 0a3e 2e1d 193e
000002c0: ab60 8f3d 45d4 b63d 6efd 52bd a3b9 79bd
000002d0: b5a9 0d3e 7ac7 5c3e 7a3d 9a3d a87e 313e
000002e0: 44d6 ab3d ac20 dd3d c53d a93d 6d15 873b
000002f0: 56de 07bd d40c 703d 98e5 eb3b 07f6 b53d
00000300: 9e80 8b3d 2ff5 e83d aefe f33d 90ca 82bd
00000310: e554 b43d 2296 103d e6d1 873b dcee 0e3e
00000320: c1e5 073e e67d ac3d 8907 6d3d 1383 013e
00000330: dd12 34bc 4d54 213d 8f39 b8bd cb99 463c
00000340: 8e15 af3d 8d10 dbbc e93d 38bd 0732 44bd
00000350: 45fd fcbd ad3b c4bd f370 083d a6a8 abbd
00000360: c512 b9bd 938b adbd 83bd 2abd cd78 b33d
00000370: 3fd6 d23c 2f34 2e3d b26a 5a3c 1371 de3d
00000380: 89a2 ff3c 1520 703c 40ea 05be 7609 b1bd
00000390: cd45 51be 21c2 6abe edcb eebd 7be1 0abe
000003a0: 4f3c 11be 2d57 4bbe f280 1b3e 59d7 1c3e
000003b0: 914a 433d 0c1e 4a3e c868 9f3d 8bb9 683e
000003c0: 4ead f43d 94d9 9d3d feed b43d 57eb 943b
000003d0: 82b5 23bc 67ca c23d 8c1d 893b 1833 bf3b
000003e0: 4849 043d d781 283d 4104 c9bd dd0e e3bc
000003f0: 3fd6 45bd 874f 3d3d fc05 dd3c 8157 e63c

features.bias f4 [6]
-0.06561449 -0.18752599 0.18904555 -0.00065925077 -0.23181199 0.03242428
00000000: e460 86bd d006 40be 2895 413e 92d1 2cba
00000010: 1f60 6dbe 52cf 043d
