har_cnn/pretrained-real-data/model_m123.pth (torch, 9985 bytes, 6 tensors)

conv1.weight f4 [5, 1, 5, 5]
-0.10496253 0.1210657 0.14623083 0.16367494 0.046074074 0.25076535 0.17757377 0.25495666
0.007416639 -0.12095497 0.13154072 0.09357498 -0.070208706 -0.013263451 0.1951287 0.088754
0.13826112 0.021685563 -0.11549462 0.12689026 0.2764261 0.30011976 -0.06609818 -0.28125265
-0.29564038 -0.26254252 -0.029357214 0.0019153587 -0.09660833 0.14150672 0.0754969 0.036786623
-0.1269816 0.0025121926 0.18385138 -0.18829334 -0.24369617 -0.17381653 -0.09041894 -0.2045003
-0.32607502 -0.31327894 0.08157404 -0.0023250629 0.10530188 -0.05932387 -0.10919275 -0.12496948
-0.20512095 -0.02392332 0.11504317 -0.1525609 -0.1102227 -0.13899136 -0.010363805 0.013563229
0.13475323 0.17727064 -0.105742246 -0.17534953 0.10423179 -0.17270003 -0.23093808 -0.23169118
-0.18887861 -0.1876493 0.04306001 0.042615585 -0.06623589 0.11509742 0.06608129 0.13562612
0.06346155 -0.0068445476 -0.10251921 0.025984868 0.13688251 -0.015087907 0.13736661 0.12632763
-0.16717017 0.002819713 -0.19083 0.07917242 -0.18838218 0.3276487 0.06417788 0.07785917
0.06401755 0.24505426 -0.28761235 -0.17455575 -0.24709307 -0.115666665 -0.21519732 -0.1044974
-0.044490937 -0.0040750843 0.07571848 0.07941986 0.19436425 0.094356045 0.27417907 0.17159806
0.2295616 -0.058778968 -0.051186655 -0.10423098 -0.22251916 -0.0036638072 0.21277584 -0.034163795
0.21315677 0.0818666 -0.13017821 0.26921266 0.14063057 0.0864507 0.23167975 0.31593132
-0.020618595 -0.15519708 0.18960813 0.18187766 -0.077882
00000000: 98f6 d6bd 4bf1 f73d 89bd 153e 679a 273e
00000010: 2bb8 3c3d 5164 803e e6d5 353e ae89 823e
00000020: 4707 f33b 3db7 f7bd 9cb2 063e 3da4 bf3d
00000030: 95c9 8fbd f24e 59bc d1cf 473e a8c4 b53d
00000040: 5394 0d3e eca5 b13c 7188 ecbd 85ef 013e
00000050: b987 8d3e 4ca9 993e 7c5e 87bd 5900 90be
00000060: 2d5e 97be f96b 86be 8a7e f0bc c60c fb3a
00000070: 97da c5bd 23e7 103e 1e9e 9a3d 92ad 163d
00000080: 7707 02be 99a3 243b 8943 3c3e f8cf 40be
00000090: 7d8b 79be f6fc 31be 912d b9bd 8768 51be
000000a0: 4ef3 a6be 1966 a0be 4a10 a73d 1560 18bb
000000b0: 83a8 d73d 96fd 72bd 73a0 dfbd 00f0 ffbd
000000c0: 3a0b 52be d7fa c3bc c19b eb3d ed38 1cbe
000000d0: 70bc e1bd c053 0ebe f3cc 29bc 4e38 5e3c
000000e0: c0fc 093e 6f86 353e 648f d8bd d48e 33be
000000f0: 7a77 d53d 47d8 30be 087b 6cbe 7440 6dbe
00000100: 6569 41be 2327 40be b15f 303d ae8d 2e3d
00000110: afa6 87bd 32b8 eb3d a155 873d 93e1 0a3e
00000120: 21f8 813d 3a48 e0bb 97f5 d1bd 38de d43c
00000130: ee2a 0c3e 4533 77bc d5a9 0c3e 085c 013e
00000140: a82e 2bbe efca 383b f168 43be 2625 a23d
00000150: 42e7 40be 92c1 a73e b16f 833d a174 9f3d
00000160: a21b 833d 81ef 7a3e ed41 93be bebe 32be
00000170: f705 7dbe a5e2 ecbd b05c 5cbe bc02 d6bd
00000180: 213c 36bd 4988 85bb 4a12 9b3d e1a6 a23d
00000190: 6c07 473e be3d c13d 3361 8c3e 67b7 2f3e
000001a0: 3212 6b3e 37c2 70bd 19a9 51bd 0d77 d5bd
000001b0: 10dc 63be 7c1c 70bb e9e1 593e 56ef 0bbd
000001c0: c545 5a3e ada9 a73d 704d 05be 3ed6 893e
000001d0: 7601 103e 110d b13d 753d 6d3e c0c1 a13e
000001e0: 54e8 a8bc fceb 1ebe a228 423e 233e 3a3e
000001f0: 9980 9fbd

conv1.bias f4 [5]
-0.120314136 -0.036427904 -0.16269436 -0.007591334 -0.12062476
00000000: 4267 f6bd 6d35 15bd 5a99 26be bac0 f8bb
00000010: 1d0a f7bd

conv2.weight f4 [10, 5, 5, 5]
0.03866427 0.06574452 0.021257853 0.058786195 -0.01397568 -0.042699844 0.055190228 -0.003489773
0.07598579 -0.113437936 -0.014490587 0.055706803 0.0718197 -0.053156886 0.031573966 -0.07955383
-0.016091684 -0.02531515 -0.03626597 -0.026257392 -0.03639524 0.07684969 0.047209635 -0.03374525
-0.011324755 0.058639806 0.13224809 -0.039527193 -0.07616234 0.105109446 0.00034285802 0.078499176
0.028142378 -0.086901486 0.042964466 0.052770298 -0.058008548 -0.0661243 -0.06297267 0.036539204
-0.06642631 -0.054542962 -0.08888195 -0.022594275 -0.021571945 -0.041780826 0.050260216 -0.08114088
-0.03830666 0.05907427 0.06151366 0.12431061 0.09855175 0.016422106 -0.027300116 0.0006804009
-0.027959438 0.011802911 0.1129037 0.07207561 -0.010505242 0.031135049 -0.010576519 0.048397496
-0.046640713 0.09251341 0.0063745882 -0.074891835 -0.044878446 -0.016053705 -0.059358295 0.028492508
-0.06118695 0.053159136 -0.060366087 -0.11577559 -0.04467696 -0.023224376 -0.11539426 0.03844923
0.009389728 0.03925276 0.065466635 0.010287712 -0.009462339 -0.059701826 -0.009801996 0.04415366
-0.055327244 0.05553331 0.029193573 -0.08767071 -0.07280715 -0.089544944 0.067565404 0.031460773
0.06715893 -0.07729306 -0.06736536 -0.076558135 -0.064883634 -0.08288536 -0.04695864 0.03735059
-0.056851022 0.05853964 -0.05440974 -0.02606587 -0.035670444 0.039819274 0.053368706 -0.04540997
0.04689424 0.10548008 0.013323718 -0.03594078 -0.07237954 -0.016748652 -0.0007629374 0.027997842
-0.07554146 0.039953113 -0.01084733 -0.07447654 0.024283616 -0.07272844 -0.066026926 0.01786244
0.093644135 -0.050998356 -0.047288634 0.007689623 0.067140914 -0.022064805 -0.08489871 -0.038431507
-0.13831432 -0.022888726 -0.020751342 -0.015580311 -0.0056723068 -0.11156875 -0.05439039 -0.014151655
-0.062282175 -0.062396098 -0.06356017 -0.011749606 -0.013855328 -0.028032934 -0.034195073 -0.031371426
0.008926143 -0.049816176 -0.05645798 -0.0023324073 -0.002419202 0.059840206 0.036267824 0.059898768
-0.07245547 -0.071999885 -0.059344422 0.00097011076 -0.031209243 -0.012354924 0.012387649 0.099369936
0.03845161 0.045993768 -0.12753622 -0.08003325 0.040721666 -0.043058716 -0.0501291 -0.119259246
0.057681333 0.04390482 0.028722318 -0.055853534 -0.038160127 -0.044138905 0.05038083 -0.044864267
0.03495028 -0.073226884 -0.023702241 0.08919793 0.11666698 0.05186696 -0.0066727274 -0.03358644
0.09921168 -0.059540413 -0.033334747 -0.10582673 0.010640678 0.023636224 -0.12529995 0.008146205
-0.052387495 -0.048059862 0.08141231 0.070413716 -0.041685574 0.08808789 0.06518095 0.12863266
0.04783435 0.061633885 0.04208932 0.06374537 0.044445638 -0.0473901 -0.013813393 0.0005354022
0.12413183 0.07057582 0.09814941 -0.05903196 -0.028333483 -0.074372 -0.047805898 -0.061672438
-0.069072165 0.070653 -0.027772969 0.0008069438 -0.064510636 0.011999123 0.07754177 0.040114712
0.063742414 0.069503225 -0.010583532 -0.057857923 -0.03492373 0.056863744 -0.07161305 -0.06757711
-0.10923962 -0.022580516 -0.033223744 0.056107454 0.046439532 -0.028139574 0.052982587 -0.036455493
-0.05956321 0.04527775 0.11081856 0.028997442 -0.080512546 0.084412105 -0.00066529674 0.023362469
00000000: 6d5e 1e3d 10a5 863d f324 ae3c cbc9 703d
00000010: 40fa 64bc 08e6 2ebd 260f 623d adb4 64bb
00000020: 709e 9b3d 2652 e8bd ed69 6dbc d12c 643d
00000030: 3516 933d 09bb 59bd b453 013d 1eed a2bd
00000040: b5d2 83bc b861 cfbc a08b 14bd be19 d7bc
00000050: 2d13 15bd 5f63 9d3d e45e 413d 7638 0abd
00000060: 778b 39bc 4b30 703d 0b6c 073e 44e7 21bd
00000070: 00fb 9bbd 9f43 d73d a0c1 b339 2dc4 a03d
00000080: d88a e63c 68f9 b1bd 82fb 2f3d ab25 583d
00000090: 5f9a 6dbd 2d6c 87bd d1f7 80bd 22aa 153d
000000a0: 840a 88bd 7168 5fbd bd07 b6bd a117 b9bc
000000b0: a6b7 b0bc 5f22 2bbd a8dd 4d3d 312d a6bd
000000c0: 72e7 1cbd ddf7 713d bff5 7b3d 9096 fe3d
000000d0: 80d5 c93d a787 863c 7ea4 dfbc ee5c 323a
000000e0: 310b e5bc ff60 413c 0e3a e73d 619c 933d
000000f0: 2e1e 2cbc ee0e ff3c 2349 2dbc 743c 463d
00000100: 550a 3fbd ac77 bd3d ece1 d03b e460 99bd
00000110: 76d2 37bd 0f83 83bc af21 73bd 1f69 e93c
00000120: 2b9f 7abd 65bd 593d 6e42 77bd c11b edbd
00000130: 30ff 36bd 0c41 bebc d353 ecbd f17c 1d3d
00000140: 60d7 193c 81c7 203d 5f13 863d cb8d 283c
00000150: ed07 1bbc e789 74bd 8d98 20bc 78da 343d
00000160: d29e 62bd e576 633d 5c27 ef3c b48c b3bd
00000170: ea1b 95bd 5763 b7bd bb5f 8a3d 03dd 003d
00000180: 9f8a 893d d34b 9ebd daf6 89bd 83ca 9cbd
00000190: b6e1 84bd cdbf a9bd b457 40bd effc 183d
000001a0: 9edc 68bd 43c7 6f3d bfdc 5ebd 1788 d5bc
000001b0: 2c1b 12bd 8919 233d 2599 5a3d ceff 39bd
000001c0: 2d14 403d f105 d83d b94b 5a3c a436 13bd
000001d0: b93b 94bd 7834 89bc ddff 47ba bb5b e53c
000001e0: 7bb5 9abd e0a5 233d 00b9 31bc 2887 98bd
000001f0: 6fee c63c a6f2 94bd 2039 87bd 4054 923c
00000200: 7fc8 bf3d a7e3 50bd bab1 41bd 3cf9 fb3b
00000210: 2d81 893d 40c1 b4bc 60df adbd 5b6a 1dbd
00000220: 45a2 0dbe 2381 bbbc b8fe a9bc 9044 7fbc
00000230: c2de b9bb 287e e4bd 75c8 5ebd 58dc 67bc
00000240: 981b 7fbd 0d93 7fbd d62b 82bd 6b81 40bc
00000250: 7501 63bc 53a5 e5bc 2210 0cbd 537f 00bd
00000260: f53e 123c 0c0c 4cbd 7c40 67bd 4ddb 18bb
00000270: 798b 1ebb 011b 753d 928d 143d 6958 753d
00000280: 8963 94bd ad74 93bd 2313 73bd 084f 7e3a
00000290: 87aa ffbc 4f6c 4abc 91f5 4a3c 7782 cb3d
000002a0: 6f7f 1d3d f663 3c3d db98 02be 79e8 a3bd
000002b0: c3cb 263d 565e 30bd 2c54 4dbd 313e f4bd
000002c0: 4343 6c3d 8ad5 333d 114b eb3c adc6 64bd
000002d0: cb4d 1cbd ffca 34bd 215c 4e3d 98c3 37bd
000002e0: 0628 0f3d faf7 95bd 342b c2bc 68ad b63d
000002f0: 19ef ee3d 7372 543d e5a6 dabb ef91 09bd
00000300: 7e2f cb3d a6e0 73bd 048a 08bd afbb d8bd
00000310: 3d56 2e3c c1a0 c13c a14e 00be a977 053c
00000320: 4594 56bd 6bda 44bd 7fbb a63d 1135 903d
00000330: 7ebe 2abd 6c67 b43d 977d 853d 48b8 033e
00000340: f4ed 433d d073 7c3d da65 2c3d ef8c 823d
00000350: a10c 363d 1f1c 42bd 9251 62bc 3c5a 0c3a
00000360: d438 fe3d 0e8a 903d 8f02 c93d 7fcb 71bd
00000370: 9f1b e8bc 5950 98bd 1ed0 43bd 3d9c 7cbd
00000380: b575 8dbd 85b2 903d 2384 e3bc 1589 533a
00000390: 271e 84bd f897 443c 38ce 9e3d 534f 243d
000003a0: 628b 823d b557 8e3d 8d66 2dbc 6efc 6cbd
000003b0: 2f0c 0fbd f5e9 683d dda9 92bd de65 8abd
000003c0: 06b9 dfbd c6fa b8bc 9f15 08bd eed0 653d
000003d0: 6137 3e3d f784 e6bc 4504 593d 5b52 15bd
000003e0: 8df8 73bd 2975 393d d7f4 e23d 0b8c ed3c
000003f0: c3e3 a4bd 41e0 ac3d 4f67 2eba a662 bf3c

conv2.bias f4 [10]
0.00671164 -0.07095383 0.009881253 -0.009055268 -0.023726933 -0.03583452 0.07367517 -0.016462281
-0.07388978 -0.044776537
00000000: 51ed db3b 3e50 91bd fbe4 213c 8c5c 14bc
00000010: fc5e c2bc 38c7 12bd 02e3 963d e8db 86bc
00000020: 8653 97bd 9a67 37bd

features.weight f4 [6, 10, 3, 3]
0.06633183 0.07943533 -0.04155535 0.015759202 -0.026426785 -0.05422094 -0.030605018 -0.06816704
0.022180634 -0.055321243 0.10326367 0.012697509 -0.057802998 -0.016379358 -0.08405378 -0.13135864
-0.069114454 0.04429704 0.082447514 -0.06474513 0.107349254 0.0086386865 -0.014427597 -0.031191813
-0.08720891 0.025944 -0.049732998 0.08219473 -0.008406194 -0.09287082 -0.02942556 -0.0122439535
0.08430334 0.07686813 0.050696842 -0.069347635 -0.10865411 -0.041308615 -0.09033705 -0.1674462
-0.09656237 -0.12581426 0.014870697 -0.06922382 -0.01647218 0.093998305 -0.10910615 -0.056385133
0.10242802 0.08541117 0.03208275 0.071310274 0.07896452 0.08261928 0.07017021 0.077367246
0.08184888 0.009572162 0.042839937 -0.03252703 0.069991924 -0.055705544 0.09256921 -0.022063829
0.08869898 -0.024888743 -0.09015432 0.008400252 0.07030278 -0.09341179 -0.042295378 0.08845853
-0.04949218 0.10926639 0.042587474 0.0724716 0.0110458955 -0.0032773388 -0.060905498 0.04544345
0.034377523 -0.05577332 0.11516368 0.05202685 0.106667385 0.17047022 0.13677885 0.12672147
0.081360154 0.009605252 -0.03122483 0.013739213 0.103300855 -0.07105709 -0.033469208 -0.085203096
-0.057167277 0.056812275 0.06652335 -0.052659616 0.122510105 0.047223173 0.20744513 0.03136764
0.20547903 0.059274685 -0.011409568 0.1295894 0.11585182 0.0987152 -0.02784604 0.04410385
0.056838777 -0.0033235012 -0.067874275 0.043303616 0.06411927 -0.032265693 -0.061078243 -0.07544377
-0.101128414 -0.08013428 -0.029222818 0.1232451 0.03704641 0.11782321 0.11490026 -0.046121795
0.013439375 0.037060753 -0.028224472 0.014505829 0.015531872 -0.06172236 -0.08408991 -0.057281066
0.12342927 0.046194185 0.12382783 -0.04077665 0.050293483 -0.08850057 0.0483657 -0.005362576
0.05675872 -0.08223577 0.019444592 -0.0048717423 -0.12863028 -0.08856762 -0.0036604914 -0.1140066
-0.048975155 -0.08193324 0.09283395 -0.0065758545 -0.020045608 -0.11724863 -0.08790842 -0.030186025
-0.033513352 -0.090942614 -0.011189788 -0.13366108 0.056290284 -0.09413863 -0.029516554 -0.067725666
0.10108574 0.08125763 -0.040411897 0.07453875 0.012205729 0.022325663 0.18888141 0.052878458
0.014827133 0.072078265 0.052095648 0.069174945 -0.052983243 0.0013597285 0.06538928 0.025958335
-0.09987574 -0.03800685 -0.031335264 -0.14739682 -0.06250907 -0.08721213 0.015958993 0.067680225
-0.07148603 -0.0005187639 -0.041498903 0.099785194 -0.088530734 0.07058134 0.10373816 -0.025039995
0.10978026 0.0026594347 0.07509484 0.1361796 0.12245974 0.14130658 0.105806455 0.13553527
0.115775615 0.1311472 0.09017483 -0.049391076 -0.004138681 -0.01846423 0.0495506 -0.029221343
-0.122770384 0.0060465913 -0.043658424 -0.040982738 -0.058302086 -0.08944584 0.004813438 -0.14720222
-0.016817054 -0.06651564 -0.079288475 -0.010653919 -0.008852185 -0.14375468 -0.0881184 -0.042962592
0.008205938 -0.07586712 0.08118846 0.05188462 0.12196291 0.14334722 0.2159563 0.059574988
0.1049408 0.043705985 0.11264159 0.11374152 -0.0168396 -0.08136656 0.05222287 0.18582548
0.18787922 0.029743113 0.067450926 0.1949923 0.01137702 0.0020340586 -0.091482855 0.0154039785
00000000: fcd8 873d feae a23d f135 2abd 7119 813c
00000010: fc7c d8bc c716 5ebd 60b7 fabc 299b 8bbd
00000020: 29b4 b53c 8798 62bd e77b d33d 3609 503c
00000030: d6c2 6cbd 012e 86bc 6324 acbd e182 06be
00000040: e18b 8dbd d070 353d 3eda a83d 1899 84bd
00000050: edd9 db3d 4789 0d3c ba61 6cbc f985 ffbc
00000060: 969a b2bd 8388 d43c d4b4 4bbd b655 a83d
00000070: 22ba 09bc 0e33 bebd df0d f1bc dd9a 48bc
00000080: 3ba7 ac3d 0a6d 9d3d 7ea7 4f3d 2206 8ebd
00000090: 0c86 debd 3933 29bd a202 b9bd 0477 2bbe
000000a0: 7ec2 c5bd 74d5 00be 39a4 733c 38c5 8dbd
000000b0: aaf0 86bc 2f82 c03d 0c73 dfbd 19f4 66bd
000000c0: c8c5 d13d 0dec ae3d 3469 033d 1f0b 923d
000000d0: 26b8 a13d 4c34 a93d 66b5 8f3d b872 9e3d
000000e0: 63a0 a73d 8fd4 1c3c ee78 2f3d 103b 05bd
000000f0: ed57 8f3d 7f2b 64bd ed94 bd3d 34bf b4bc
00000100: d0a7 b53d 7ae3 cbbc d4a2 b8bd 36a1 093c
00000110: e7fa 8f3d ae4e bfbd eb3d 2dbd bf29 b53d
00000120: 50b8 4abd 0fc7 df3d 3470 2e3d fd6b 943d
00000130: d8f9 343c 9fc8 56bb 0b78 79bd e922 3a3d
00000140: 72cf 0c3d 9172 64bd efda eb3d 1b1a 553d
00000150: 6e74 da3d bf8f 2e3e c10f 0c3e 46c3 013e
00000160: 27a0 a63d 595f 1d3c 37cb ffbc 701a 613c
00000170: 668f d33d 6186 91bd 0217 09bd f67e aebd
00000180: 3c28 6abd fdb3 683d 653d 883d 9cb1 57bd
00000190: 94e6 fa3d 166d 413d 7f6c 543e 5b7b 003d
000001a0: 1869 523e 03ca 723d 32ef 3abc 15b3 043e
000001b0: b843 ed3d 322b ca3d 611d e4bc 3da6 343d
000001c0: c7cf 683d 19cf 59bb ab01 8bbd 225f 313d
000001d0: f750 833d 0829 04bd 2e2d 7abd 4382 9abd
000001e0: 6a1c cfbd 711d a4bd b164 efbc ed67 fc3d
000001f0: fabd 173d 4c4d f13d d450 eb3d 35ea 3cbd
00000200: d330 5c3c 04cd 173d 0237 e7bc dba9 6d3c
00000210: 6579 7e3c 96d0 7cbd 5537 acbd 8d9f 6abd
00000220: 7cc8 fc3d 1d36 3d3d 7299 fd3d 6b05 27bd
00000230: 8a00 4e3d c93f b5bd 1d1b 463d 8cb8 afbb
00000240: d57b 683d 3a6b a8bd 444a 9f3c 23a3 9fbb
00000250: a8b7 03be f162 b5bd dbe4 6fbb 4b7c e9bd
00000260: 2c9a 48bd 9dcc a7bd ba1f be3d 447a d7bb
00000270: b036 a4bc 0d20 f0bd 5409 b4bd af48 f7bc
00000280: 4c45 09bd 1f40 babd 5f55 37bc 73de 08be
00000290: a490 663d c1cb c0bd b3cc f1bc c1b3 8abd
000002a0: 0a06 cf3d 666a a63d f286 25bd c6a7 983d
000002b0: 8afa 473c 4fe4 b63c 216a 413e 1597 583d
000002c0: 81ed 723c c59d 933d 3f62 553d 98ab 8d3d
000002d0: f504 59bd eb38 b23a d1ea 853d 93a6 d43c
000002e0: a78b ccbd 12ad 1bbd 6859 00bd 31ef 16be
000002f0: c104 80bd 469c b2bd 6fbc 823c ee9b 8a3d
00000300: 4567 92bd a8fd 07ba c1fa 29bd 2e5c cc3d
00000310: 9a4f b5bd f38c 903d ac74 d43d ad20 cdbc
00000320: 79d4 e03d e949 2e3b 53cb 993d aa72 0b3e
00000330: 2ccc fa3d acb2 103e 0eb1 d83d c2c9 0a3e
00000340: c41b ed3d 744b 063e 95ad b83d 4c4e 4abd
00000350: c69d 87bb 4c42 97bc 92f5 4a3d 9961 efbc
00000360: 0a6f fbbd 7c22 c63b 2dd3 32bd 84dd 27bd
00000370: 2bce 6ebd 612f b7bd 0bba 9d3b 2ebc 16be
00000380: ebc3 89bc 5a39 88bd ff61 a2bd c68d 2ebc
00000390: c108 11bc 6d34 13be 6b77 b4bd 8bf9 2fbd
000003a0: 3372 063c 3860 9bbd 2346 a63d f884 543d
000003b0: b1c7 f93d 9dc9 123e a623 5d3e e704 743d
000003c0: 34eb d63d 0c05 333d a2b0 e63d 50f1 e83d
000003d0: 33f3 89bc 83a3 a6bd a6e7 553d 0949 3e3e
000003e0: 6963 403e d4a7 f33c b623 8a3d 10ac 473e
000003f0: ae66 3a3c d74d 053b 5d5b bbbd f860 7c3c

features.bias f4 [6]
-0.037161242 0.06793871 0.05243431 -0.011306311 -0.0625262 0.12128493
00000000: 6336 18bd 7323 8b3d 5cc5 563d 1b3e 39bc
00000010: bd0d 80bd 3c64 f83d
