har_cnn/pretrained-real-data/MyModel.pth (torch, 9985 bytes, 6 tensors)

conv1.weight f4 [5, 1, 5, 5]
0	0xbe4398d5	-0.1910127
1	0xbd0729a4	-0.032998696
2	0xbe55f1de	-0.20893046
3	0xbd9f5bc4	-0.07781175
4	0x3d7f60a8	0.062348038
5	0x3d25ff56	0.04052671
6	0x3e6f9dc7	0.23400031
7	0x3e9f5877	0.3112218
8	0x3e86dea4	0.26341736
9	0x3c93e228	0.018052176
10	0xbe0f766e	-0.14010021
11	0x3cfbacc3	0.030722028
12	0xbe11e5e8	-0.14247859
13	0xbdecd51e	-0.115640864
14	0xbe470797	-0.19436489
15	0x3d47f52d	0.048817802
16	0xbe212aee	-0.15739033
17	0x3d9aaed1	0.07552875
18	0xbd35bc06	-0.044368766
19	0xbe88d8cf	-0.26727912
20	0x3e2ca98d	0.16861553
21	0x3d194848	0.03742245
22	0x3dce4b34	0.100729376
23	0xbd7af949	-0.061272893
24	0xbb849a82	-0.004046739
25	0xbc8c8790	-0.017154485
26	0x3e5fe87f	0.21866034
27	0x3e8a9399	0.27065733
28	0xbc089212	-0.008335607
29	0xbe8492f3	-0.25893363
30	0xbd8b2e0a	-0.06795891
31	0x3ddf279f	0.10896229
32	0x3c4a3aaf	0.012343093
33	0x3d074daf	0.03303307
34	0x3db45ca5	0.08806733
35	0xbdff1f1c	-0.124571055
36	0x3e02aaa2	0.12760404
37	0xbb27535e	-0.0025531868
38	0x3c975cbd	0.018476838
39	0x3dd3951d	0.103311755
40	0xbc922537	-0.017840011
41	0xbda9fa4d	-0.08299694
42	0x3dd91ea9	0.10601551
43	0xbc3b110a	-0.011417637
44	0x3de2d74d	0.110762216
45	0x3de21ead	0.11041007
46	0x3e2d7ec4	0.16942888
47	0x3e1b68aa	0.15176645
48	0xbe545341	-0.20734884
49	0xbd261419	-0.04054651
50	0x3e1c7fe0	0.15283155
51	0x3e600dc6	0.21880254
52	0xbd3a9c0a	-0.045558967
53	0xbe44cc58	-0.19218576
54	0x3d8b2629	0.06794388
55	0x3e0342a7	0.12818395
56	0xbe2b9380	-0.16755486
57	0xbdc21888	-0.09477335
58	0x3da52d6d	0.08065305
59	0x3da57037	0.08078044
60	0xbd86a42f	-0.06574284
61	0xbe1999f1	-0.1500013
62	0x3d8b7241	0.068089016
63	0xbd71e84e	-0.059059434
64	0xbe24c866	-0.16092071
65	0xbe2008d6	-0.1562837
66	0x3e1d4dee	0.15361759
67	0xbdaeb182	-0.08529951
68	0x3d4324d3	0.04764254
69	0x3cdbf386	0.02684952
70	0xbe2f7209	-0.17133345
71	0x3e4461f3	0.1917799
72	0xbde6d570	-0.11271179
73	0xbe3d47c9	-0.18484415
74	0xbc28ac11	-0.01029493
75	0x3e2c374f	0.16817974
76	0xbcfabc40	-0.030607343
77	0xbe1d6759	-0.15371455
78	0x3dd4b9d4	0.103870064
79	0x3d906319	0.070501514
80	0xbe611643	-0.21981148
81	0xbe8d8d75	-0.27646986
82	0xbe1dea35	-0.15421374
83	0xbe94e164	-0.2907821
84	0xbe595ecd	-0.2122757
85	0x3e3d5d0b	0.18492524
86	0x3dc8f7a0	0.09812856
87	0xbe4efb8a	-0.20213142
88	0x3d1bf46b	0.038074892
89	0xbdf52bf0	-0.11971271
90	0xbdbc7629	-0.09202225
91	0x3cef0979	0.029179322
92	0xbc8c1c1a	-0.017103244
93	0x3bf8b510	0.0075899437
94	0xbd4de782	-0.05026961
95	0x3e80eb72	0.2517963
96	0x3e1972e3	0.14985232
97	0x3e4b2752	0.19839218
98	0x3d743ee0	0.059630275
99	0x3e1d9aa9	0.1539103
100	0xbe4192cc	-0.18903655
101	0xbe53ec2f	-0.20695566
102	0x3e2274d7	0.15864883
103	0xbe2ed0c2	-0.17071822
104	0xbdde62f4	-0.108587176
105	0x3e2b5f91	0.16735674
106	0x3c037691	0.008023874
107	0x3cd5e62a	0.026110727
108	0x3d3b48d6	0.04572376
109	0x3e70ca34	0.23514634
110	0x3e58057a	0.21095839
111	0x3dff4575	0.1246442
112	0xbe48389c	-0.19552845
113	0xbdacedb6	-0.08443777
114	0x3da0dcd6	0.07854621
115	0xbe25c7c7	-0.1618949
116	0xbca19c1d	-0.01972776
117	0xbe96fed2	-0.29491287
118	0xbea0c833	-0.3140274
119	0xbbf8a90c	-0.0075885113
120	0xbd90a502	-0.07062723
121	0xbe36003b	-0.17773525
122	0x3c992fc8	0.018699542
123	0x3da6a928	0.08137733
124	0x3e460e82	0.19341472

conv1.bias f4 [5]
0	0xbe2928f8	-0.16519535
1	0xbd55bc69	-0.052181635
2	0x3e205346	0.15656766
3	0xbe2bb0e4	-0.16766697
4	0xbe1bc5be	-0.15212151

conv2.weight f4 [10, 5, 5, 5]
0	0xbbda8643	-0.0066688373
1	0xbc18486c	-0.0092946105
2	0x3dbccd41	0.092188366
3	0xbdb0d74f	-0.08634817
4	0xbd8701e2	-0.06592156
5	0x3bc76cf0	0.0060859844
6	0x3dc130b4	0.094331175
7	0x3df97d6f	0.12182128
8	0xbc8361fd	-0.016037935
9	0x3cb01a17	0.021496816
10	0xbcd3d058	-0.025856182
11	0x3d5187c8	0.05115488
12	0xbd340522	-0.043950208
13	0xbd83fe46	-0.06444983
14	0x3d3877e9	0.04503623
15	0x3d8d9d72	0.06914796
16	0x3d176a34	0.036966518
17	0x3d7fdd31	0.062466804
18	0xbcd89ec9	-0.026442902
19	0x3d58a48a	0.05289129
20	0xbd73eefc	-0.059554085
21	0xbc886f97	-0.016654773
22	0x3db0bdee	0.08629976
23	0x3d7bc7f7	0.06147
24	0x3e0098b0	0.12558246
25	0xbdb43e49	-0.088009425
26	0x3c95a1be	0.018265601
27	0x3d7833ee	0.0605964
28	0xbb1e309c	-0.002413786
29	0x3dbc6c27	0.09200316
30	0xbd3e115a	-0.046403266
31	0x3d80924b	0.06277903
32	0xbd819344	-0.06326917
33	0xbd941e37	-0.072323255
34	0xbc6d9c6d	-0.014502627
35	0x3d61731b	0.055041414
36	0x3d8d0bbb	0.06887003
37	0xbd8ad371	-0.067786105
38	0xbd74c781	-0.059760574
39	0x3cd47a80	0.025937319
40	0x3d3e70d4	0.04649432
41	0xbdbb3b71	-0.09142197
42	0xbc6e0337	-0.014527134
43	0xbb92fe44	-0.004485877
44	0x3c1b8b43	0.009493652
45	0x3d59006c	0.052978918
46	0xbc850e25	-0.016242096
47	0x3db29f54	0.08721796
48	0xbcd23879	-0.025661694
49	0x3c61c3ed	0.0137796225
50	0xbd1ad397	-0.037799444
51	0x3ce001cc	0.027344607
52	0xbcd2a088	-0.025711313
53	0x3d6adeae	0.05734127
54	0xbc0ac454	-0.00846966
55	0x3ce0b2be	0.02742898
56	0x3d1957f9	0.037437413
57	0xbd8974d3	-0.067117356
58	0x3c871ba6	0.016492676
59	0xbd93080b	-0.071792684
60	0x3d81f822	0.06346156
61	0xbd3b0edd	-0.04566847
62	0xbd9e030b	-0.07715424
63	0xbdc3eae4	-0.09566286
64	0xbda33655	-0.079693474
65	0xbdb72760	-0.08943057
66	0x3d21693d	0.039407004
67	0xbdc9ef94	-0.09860149
68	0x3cd643ac	0.026155315
69	0xbd3475ef	-0.044057783
70	0xbb7363c6	-0.0037138327
71	0x3cec3200	0.028832436
72	0xbd9f0334	-0.07764283
73	0xbd86a086	-0.06573586
74	0x3db69ebb	0.08916994
75	0xbd836eed	-0.06417642
76	0x3d29c930	0.041451633
77	0x3da112cb	0.078649126
78	0x3d7fc918	0.062447637
79	0xbc17801a	-0.00924685
80	0x3c6a9a9c	0.014319088
81	0x3dedf0df	0.11618208
82	0xbcd5d677	-0.026103241
83	0xbca8d08e	-0.02060726
84	0x3d9e444e	0.07727872
85	0x3c0a22e4	0.00843117
86	0xbd26153a	-0.040547587
87	0xbd85bcdd	-0.065301634
88	0xbde83852	-0.11338867
89	0xbd3ff941	-0.046868566
90	0x3c8a5e30	0.016890615
91	0x3da4cffa	0.08047481
92	0xbd2983a3	-0.041385304
93	0x3d0f6f03	0.03501798
94	0xbdd51f99	-0.104064174
95	0xbcb2fcbb	-0.021849027
96	0x3d1f7636	0.038931094
97	0x3ce52b65	0.027974794
98	0xbd43d598	-0.04781112
99	0xbd0a7677	-0.033804383
100	0xbcda210c	-0.026627086
101	0xbcbf61e1	-0.023362102
102	0x3db3da0a	0.08781822
103	0x3ca6fc77	0.020384056
104	0x3d104a66	0.035227202
105	0x3d900977	0.07033055
106	0x3d483336	0.048876964
107	0x3d016326	0.031588696
108	0x3d3fdacf	0.04683953
109	0xbd09b10d	-0.033616114
110	0x3d180dcf	0.037122544
111	0xbc827c27	-0.015928341
112	0xbd7e6539	-0.062108252
113	0xbd55fce7	-0.05224314
114	0xbd9f9f8e	-0.077941045
115	0xbc93b003	-0.018028265
116	0xbc84d749	-0.016215937
117	0x3cf31284	0.029671915
118	0xbd0686f2	-0.032843538
119	0x3d399005	0.045303363
120	0xbd195e8a	-0.037443675
121	0x3d426562	0.047459967
122	0x3de3b685	0.11118797
123	0x3a21bc1a	0.0006169692
124	0x3de27ea5	0.11059312
125	0x3daab751	0.08335746
126	0xbd3c2b7b	-0.045939904
127	0xbd484203	-0.04889108
128	0xbcf9e581	-0.030504944
129	0x3d734db9	0.059400294
130	0xbccf3141	-0.02529204
131	0x3cfa9957	0.030590696
132	0xbcf823b1	-0.030290456
133	0xbda59e20	-0.080868006
134	0xbd49dda8	-0.049283653
135	0xbd12762c	-0.03575723
136	0xbd1e7003	-0.03868104
137	0x3d749e2e	0.059721164
138	0xbd178024	-0.03698744
139	0x3d3f5617	0.04671296
140	0x3ccc63ed	0.024949992
141	0xbd8df90b	-0.06932267
142	0xbd8b00f8	-0.06787294
143	0x3c039d89	0.008033165
144	0xbc6980e9	-0.014251926
145	0x3d6d6f6e	0.057967596
146	0xbce91bf3	-0.02845571
147	0x3b500632	0.0031741974
148	0x3d57657a	0.05258701
149	0x3ccd8317	0.025086923
150	0xbd8ca22b	-0.068668686
151	0x3da14098	0.078736484
152	0x3d91939e	0.07108234
153	0xbd8cd646	-0.06876807
154	0x3d4cb7df	0.04998004
155	0xbd9ad114	-0.0755941
156	0xbd7ce68c	-0.061743304
157	0xbd8da343	-0.06915905
158	0x3c2e15ec	0.010625344
159	0xbd0ee70c	-0.034888312
160	0x3d927be5	0.07152537
161	0x3d2b2ccd	0.041790772
162	0x3d9ad904	0.07560924
163	0x3d9b4c02	0.07582857
164	0xbd8f0718	-0.06983775
165	0xbd21fbcb	-0.03954677
166	0x3c92d85b	0.017925432
167	0xbb09d245	-0.0021029871
168	0xbd06188c	-0.032738253
169	0x3db307b5	0.087417044
170	0xbcc8f98f	-0.024533061
171	0x3d60e697	0.054907408
172	0xbc3b5258	-0.0114332065
173	0x3d8ab07c	0.06771943
174	0x3dbdcd2b	0.09267648
175	0xbd5be1cb	-0.05368213
176	0xbccbd993	-0.02488402
177	0x3cae4839	0.021274673
178	0x3d09ea95	0.03367098
179	0xbb2b8e7c	-0.0026177457
180	0xbd5005df	-0.05078685
181	0x3da02ed2	0.0782143
182	0x3acb6b9b	0.001551974
183	0xbd998c75	-0.07497493
184	0xbcfc477a	-0.030795801
185	0xbd7a8d2c	-0.06116979
186	0xbbbfcaad	-0.0058530183
187	0xbdacd2a1	-0.08438612
188	0xbd967ac5	-0.07347635
189	0xbd804e52	-0.062649384
190	0xbd9241d4	-0.07141462
191	0x3d2857bc	0.041099295
192	0xbd547848	-0.05187252
193	0x3da393c8	0.079871714
194	0xbdaf4e87	-0.085599
195	0xbd38cf41	-0.045119528
196	0xbd83a016	-0.06427018
197	0xb95a4818	-0.00020816957
198	0xbd76f103	-0.06028844
199	0x3ccb4462	0.02481288
200	0xbd6e70fc	-0.05821322
201	0x3ca3f421	0.02001387
202	0xbdac51df	-0.08414053
203	0xbd4734ed	-0.04863446
204	0xbd9a44ce	-0.07532655
205	0x3d679589	0.056539092
206	0x3c87414f	0.016510634
207	0xbd755443	-0.05989481
208	0xbb5fe83a	-0.0034165517
209	0x3d398327	0.045291092
210	0xbd05fcc6	-0.032711767
211	0xbd650b5d	-0.05591904
212	0x3d217771	0.03942055
213	0xbcd18720	-0.025577128
214	0x3dc0612a	0.093935326
215	0x3c8a0075	0.016845921
216	0x3d8c79fc	0.06859204
217	0x3be2dc3e	0.0069232276
218	0x3d9ddb02	0.07707788
219	0x3b915797	0.0044354904
220	0xbd8449ea	-0.064594105
221	0x3c7947a6	0.015214836
222	0xbd2de308	-0.042452842
223	0x3d9423cd	0.07233391
224	0xbd9fc78d	-0.07801733
225	0xbd8b9abe	-0.06816624
226	0x3bc5fd06	0.0060421256
227	0xbcf47994	-0.02984313
228	0x3da937ea	0.08262618
229	0xbd95be8e	-0.07311736
230	0xbd19638b	-0.037448447
231	0xbd54496d	-0.051827837
232	0x3d21fe7a	0.03954933
233	0x3d3cb357	0.04606947
234	0xbd3f80c2	-0.046753652
235	0xbdb1c2b6	-0.08679716
236	0x3d98203d	0.07428024
237	0xbd875b65	-0.06609229
238	0xbd4a336b	-0.049365442
239	0x3d458894	0.048225954
240	0x3d6aa45a	0.057285644
241	0xbcbefad3	-0.023312962
242	0xbd953f4e	-0.07287465
243	0xbc938464	-0.018007465
244	0xbd3c334a	-0.04594735
245	0x3cef22eb	0.029191455
246	0xbda37d6b	-0.07982906
247	0xbd31ab80	-0.043376446
248	0x3d521d08	0.051297218
249	0x3d1687c7	0.03675058
250	0x3d874b51	0.06606162
251	0xbd0885c4	-0.033330694
252	0x3c090adf	0.008364408
253	0xbd910ae8	-0.07082158
254	0x3d979712	0.07401861
255	0xbb6828ca	-0.0035424703

conv2.bias f4 [10]
0	0xbd5dc381	-0.054141525
1	0xbd9c6fe4	-0.07638529
2	0x3d41996d	0.04726546
3	0x3d13ae9b	0.03605519
4	0x3d52c642	0.051458605
5	0x3cd40177	0.025879605
6	0xbdaac72d	-0.08338771
7	0xbd58443e	-0.052799456
8	0xbd22ac09	-0.039714847
9	0x3d79f765	0.06102695

features.weight f4 [6, 10, 3, 3]
0	0x3c804ade	0.0156607
1	0xbda5887a	-0.080826715
2	0xbdd5e7d5	-0.10444609
3	0x3d6d1985	0.057885665
4	0x3da46402	0.080268875
5	0xbd710077	-0.058838334
6	0x3cbcda7d	0.023053402
7	0x3e015b0c	0.12632388
8	0xbc2f8bbd	-0.010714469
9	0x3bf746bb	0.0075462735
10	0x3c84b9e2	0.016201917
11	0xbda7ae88	-0.08187586
12	0x3c415520	0.011800081
13	0x3dd8726b	0.105686985
14	0x3d814aea	0.06313117
15	0x3d1fc72a	0.039008297
16	0xbd4e19c6	-0.05031755
17	0xb9fa4f0f	-0.0004774262
18	0xbd27e4b7	-0.040989604
19	0xbd7befab	-0.061507862
20	0x3dc0a77c	0.09406945
21	0xbdcfbab6	-0.10143034
22	0xbd5d61b1	-0.054048244
23	0xbdb7a2c1	-0.0896659
24	0x3d4fef4f	0.05076533
25	0x3c93502c	0.017982565
26	0x3d556cc7	0.05210569
27	0xbb59386c	-0.0033145202
28	0xbe0c1b67	-0.13682328
29	0xbe42d751	-0.19027449
30	0xbe2eb5dd	-0.17061563
31	0xb8b389ed	-8.561076e-05
32	0xbe383669	-0.17989506
33	0x3d32955f	0.043599483
34	0xbd7b059e	-0.061284654
35	0xbd90e81a	-0.0707552
36	0xbdbb6d2e	-0.09151684
37	0x3c92edd4	0.01793567
38	0xbdc00169	-0.09375269
39	0x3ca2b303	0.01986075
40	0x3d3fe6e6	0.04685106
41	0x3d331940	0.043725252
42	0x3dc03d84	0.09386733
43	0x3e12535f	0.14289616
44	0x3d3d4a54	0.046213463
45	0x3e033007	0.1281129
46	0x3e0dfa59	0.13865031
47	0xbcf3af9d	-0.029746825
48	0x3be4ddc5	0.006984445
49	0xbbd40040	-0.0064697564
50	0xbd7563cb	-0.059909623
51	0xbdc50ab4	-0.09621182
52	0x3d219b5d	0.039454807
53	0x3bee3825	0.0072698765
54	0x3dca8fd7	0.098907165
55	0x3d79e99a	0.061013795
56	0x3d02bbc4	0.03191735
57	0x3e19c17a	0.15015212
58	0x3d867521	0.06565309
59	0xbc00e594	-0.007867236
60	0xbca4408f	-0.020050315
61	0x3df6babe	0.12047337
62	0xbcec9221	-0.028878273
63	0xbd96e0ec	-0.07367119
64	0x3dd84976	0.105608866
65	0x3c8b2e3d	0.016989822
66	0x3afafe27	0.001914923
67	0xbd726686	-0.059179805
68	0x3da5c931	0.08095015
69	0xbdac6b2f	-0.08418881
70	0x3d29afe5	0.04142751
71	0x3cdf9ddb	0.027296951
72	0x3ba1377b	0.004919944
73	0xbd5e1426	-0.054218434
74	0x3d9a8f55	0.0754687
75	0x3de8b751	0.1136309
76	0x3d9c960e	0.07645808
77	0x3d4f4405	0.050601978
78	0xbdadb38f	-0.08481514
79	0x3d57466c	0.052557394
80	0xbc4003e0	-0.011719674
81	0x3d7732fb	0.060351353
82	0x3d3e5c0e	0.04647451
83	0x3d55dd50	0.052213013
84	0xbdbcb8ac	-0.09214911
85	0xbdbe8dcc	-0.09304389
86	0xbd7c9a57	-0.061670627
87	0xbd4b38aa	-0.049614586
88	0x3d4dadc2	0.050214536
89	0x3db6308f	0.088959806
90	0x3d660080	0.05615282
91	0xbc35fac8	-0.011107154
92	0xbc8d8e7a	-0.017279852
93	0x3dc51aa7	0.09624224
94	0xbd6465f8	-0.055761307
95	0x3df01924	0.11723545
96	0x3df1101e	0.11770652
97	0xbae8446a	-0.0017720584
98	0x3de9a1b9	0.11407799
99	0x3c38fafe	0.01129031
100	0x3d1f21d3	0.038850617
101	0xbdb309be	-0.087420925
102	0xbcb44623	-0.0220061
103	0x3d772a59	0.06034312
104	0xbd3b7447	-0.045765188
105	0xbdabe562	-0.08393361
106	0xbd826439	-0.06366772
107	0x3d52cae7	0.051463034
108	0x3cf5e2b3	0.030015325
109	0x3b6dbf14	0.0036277222
110	0x3d94326e	0.07236181
111	0x3da66f67	0.08126717
112	0x3c534f02	0.012897255
113	0x3dcf1c36	0.10112803
114	0xbce675eb	-0.0281324
115	0x3c99eaf7	0.018788798
116	0xbd951180	-0.072787285
117	0xbde3565b	-0.111004554
118	0x3cbda41d	0.023149544
119	0xbc993180	-0.018700361
120	0xbdde8cc5	-0.108666934
121	0x3c59e766	0.013299799
122	0x3cf9ead0	0.030507475
123	0x3c19fde5	0.009398912
124	0xba160ce2	-0.00057239656
125	0xbd117495	-0.035511572
126	0x3d06ec28	0.03294006
127	0x3dc8edb7	0.098109655
128	0x3d82ea0b	0.063922964
129	0xbd2e9721	-0.042624597
130	0x3d2ca325	0.042147774
131	0x3d4eba3d	0.05047058
132	0x3d18cd31	0.03730506
133	0xbd5c8258	-0.053835243
134	0xbc7c6c13	-0.015406626
135	0xbc1fb3fe	-0.009747503
136	0x3e0690cb	0.13141172
137	0xbd06a895	-0.032875616
138	0x3db49356	0.088171646
139	0x3e1359af	0.1438968
140	0x3d1cd75a	0.038291313
141	0x3d565023	0.052322518
142	0xbd047b82	-0.03234435
143	0x3dd2e01e	0.10296653
144	0xbdd64e34	-0.10464135
145	0xbc55c612	-0.013047712
146	0xbdc09d27	-0.094049744
147	0xbdaa0b90	-0.083029866
148	0xbe1104ae	-0.14161941
149	0xbc59693d	-0.01326972
150	0x3d1351ae	0.035966568
151	0xbe0a00be	-0.13476846
152	0xbc416a85	-0.011805181
153	0xbd2c2f6b	-0.04203741
154	0xbc5a0188	-0.013306029
155	0xbd084002	-0.033264168
156	0xbc84b81e	-0.016201075
157	0xbd836e80	-0.064175606
158	0x3db1ea30	0.08687246
159	0xbdbccda8	-0.09218913
160	0x3d2b4e5b	0.041822772
161	0x3dd4b5d4	0.103862435
162	0x3dc32202	0.09527971
163	0xbd26aae5	-0.04069032
164	0xbc9ca5cb	-0.019122025
165	0xbc898b20	-0.016789973
166	0xbd496cdc	-0.049176082
167	0x3dd6a6b6	0.10481016
168	0xbdabf4cb	-0.083963
169	0x3aaf9cb9	0.0013398147
170	0xbda69ba3	-0.08135154
171	0xbbe27f4e	-0.0069121486
172	0xbcaf3e45	-0.021391997
173	0x3dfafa2d	0.122547485
174	0xbd58179d	-0.052756894
175	0x3d75a497	0.05997142
176	0x3cf49b9c	0.029859357
177	0x3d57e450	0.05270797
178	0xbdf5b4a0	-0.11997342
179	0xbde86591	-0.11347497
180	0xbdab72d7	-0.08371513
181	0x3dc4a224	0.09601238
182	0xbd383a52	-0.044977494
183	0x3c984ea1	0.01859218
184	0xbd9869c8	-0.07442051
185	0x3cd2eccc	0.02574768
186	0xbbd4f585	-0.006498995
187	0xbdeb0409	-0.11475379
188	0x3db476f1	0.08811749
189	0xbcf0c9ff	-0.029393194
190	0xbcd3f447	-0.025873316
191	0xbd8d16da	-0.06889124
192	0x3b2540cd	0.0025215626
193	0xbc9fa954	-0.019489922
194	0x3d3afc7e	0.04565095
195	0x3db44387	0.08801942
196	0x3da16b23	0.07881763
197	0xbdd3d136	-0.10342638
198	0xbdcb372f	-0.09922635
199	0x3dca0f39	0.09866185
200	0xbdca4262	-0.09875943
201	0x3dc8a1d2	0.0979649
202	0xbdcc9603	-0.0998955
203	0xbd08183a	-0.03322623
204	0xbd6a6dc0	-0.057233572
205	0x3d5f661d	0.054540742
206	0xbd167626	-0.03673377
207	0x3d15aa2a	0.036539234
208	0xbd900f30	-0.07034147
209	0x3d8e923f	0.06961488
210	0x3d5795d8	0.052633137
211	0x3d236117	0.039887514
212	0x3da50573	0.0805768
213	0x3dc40c53	0.09572663
214	0x3d9785cb	0.07398566
215	0xbca7ae68	-0.020468906
216	0x3db6549d	0.089028575
217	0x3d96e6be	0.07368229
218	0x3d23cacd	0.039988328
219	0xbd2b8ff2	-0.041885324
220	0x3db06cf4	0.08614531
221	0x3df6df11	0.12054265
222	0x3b3b72f4	0.0028602453
223	0x3d53e004	0.05172731
224	0x3d1d88cf	0.03846055
225	0x3d37e22f	0.04489344
226	0xbd248b20	-0.040171742
227	0xbd2a28b9	-0.041542742
228	0xbdd60c04	-0.104515105
229	0xbe5431df	-0.2072215
230	0xbe585cb3	-0.21129112
231	0x3d3c38eb	0.04595272
232	0xbe0129e5	-0.12613638
233	0xbe1ebf90	-0.15502763
234	0x3c86ed5b	0.016470602
235	0xbd7f25ed	-0.06229203
236	0x3d8a733f	0.06760263
237	0xbd51d90f	-0.051232394
238	0xbc7c232f	-0.015389248
239	0xbd8c964b	-0.068646036
240	0xbba169f2	-0.0049259597
241	0x3cfbcf58	0.030738518
242	0x3d93ebe0	0.07222724
243	0x3cc44a0c	0.02396109
244	0xba4be6fd	-0.00077782554
245	0x3db6f542	0.08933498
246	0xbd9144fc	-0.07093236
247	0xbd1760e1	-0.036957625
248	0x3dc1d986	0.094653174
249	0xbd56d150	-0.05244571
250	0xbd8c7f36	-0.06860201
251	0xbd202908	-0.03910163
252	0x3dae3643	0.08506443
253	0x3c5a518f	0.013325109
254	0x3dc6dfa7	0.09710627
255	0x3dcb723d	0.099338986

features.bias f4 [6]
0	0xbd1d56b0	-0.03841275
1	0xbdb7924c	-0.08963451
2	0x3c0ee9a8	0.0087227
3	0x3dac20ac	0.08404669
4	0xbd948735	-0.07252351
5	0x3da2cf37	0.07949679
