models/model_32fp.tflite (tflite, 10072 bytes, 6 tensors)

CNN_m123/conv2d_3/Conv2D/ReadVariableOp f4 [1, 5, 5, 5]
-0.03291341 -0.22482772 0.1449911 0.1893887 0.117536575 -0.12405372 -0.19882295 -0.097022556
-0.032095015 0.038194235 -0.13052924 -0.2334302 -0.28267434 0.02104679 -0.022539144 0.15352143
-0.16315494 -0.17829949 0.10635342 0.0074807946 -0.00029058103 -0.10011437 -0.15393668 -0.10062984
-0.09414286 -0.17131868 0.1501178 0.10361237 0.02547685 -0.06808194 0.029623466 -0.023976812
0.07688412 -0.034671117 0.12153367 0.27886337 -0.1127718 0.0037625472 -0.0112518845 0.092850156
0.22145668 0.011349975 -0.07516216 -0.17588586 -0.12287006 -0.06895615 -0.26183587 0.091207
0.011509375 -0.13435479 -0.012520905 -0.0029035655 0.12104222 -0.25416422 0.31172886 -0.17371452
-0.008593728 0.061781757 -0.023484165 0.29148805 -0.14421038 0.027599383 0.1255103 -0.054782633
0.021458238 -0.20539513 -0.0434303 0.07631886 -0.16604142 -0.082510106 0.17861713 0.027281212
0.007960647 -0.033459894 0.14149533 -0.14069736 0.22087921 -0.087105274 0.035918776 0.19952829
-0.02095964 0.15467136 -0.04490249 0.05428454 0.297386 -0.17973267 0.106555305 -0.13885398
0.26210016 0.21785326 -0.17959487 0.15484601 -0.0026207955 0.09652189 0.0642179 -0.046807043
0.096386366 -0.0059486786 0.16331011 -0.023231532 -0.12416268 0.07146013 0.097000115 -0.0416603
0.07933055 -0.02406539 0.25876796 -0.005470966 0.028283207 0.12325818 0.10966944 0.26823965
0.06356695 -0.13097419 0.3658985 0.15031187 0.11407226 0.047100626 -0.11968363 0.27879083
0.0057171565 -0.046946853 -0.0059486106 0.038810063 -0.13173722
00000000: 36d0 06bd 3d39 66be 8c78 143e 1def 413e
00000010: 04b7 f03d e00f febd 3e98 4bbe c3b3 c6bd
00000020: 1076 03bd 8f71 1c3d 75a9 05be 5408 6fbe
00000030: b1ba 90be 516a ac3c 03a4 b8bc b934 1d3e
00000040: 1712 27be 2494 36be d2cf d93d 7421 f53b
00000050: 2059 98b9 c308 cdbd 94a1 1dbe 0417 cebd
00000060: f9cd c0bd 2a6e 2fbe 7bb8 193e b932 d43d
00000070: d4b4 d03c 8b6e 8bbd e9ac f23c 056b c4bc
00000080: 6c75 9d3d 4d03 0ebd a5e6 f83d 2ec7 8e3e
00000090: e7f4 e6bd 1195 763b d359 38bc 3928 be3d
000000a0: 8ac5 623e 3ff5 393c 9eee 99bd 6c1b 34be
000000b0: 4ca3 fbbd e238 8dbd 5a0f 86be bcca ba3d
000000c0: d191 3c3c 4d94 09be 7b24 4dbc bf49 3ebb
000000d0: fce4 f73d d021 82be ed9a 9f3e 38e2 31be
000000e0: b5cc 0cbc de0e 7d3d dd61 c0bc ec3d 953e
000000f0: e3ab 13be 1a18 e23c c685 003e c163 60bd
00000100: 30c9 af3c 1a53 52be f8e3 31bd 104d 9c3d
00000110: c306 2abe 0ffb a8bd 69e7 363e d97c df3c
00000120: 606d 023c 3e0d 09bd 27e4 103e f812 10be
00000130: 292e 623e 4064 b2bd 911f 133d 2551 4c3e
00000140: 8db3 abbc 2b62 1e3e aceb 37bd 7759 5e3d
00000150: fa42 983e d70b 38be ab39 da3d bd2f 0ebe
00000160: fe31 863e ed14 5f3e b8e7 37be f48f 1e3e
00000170: a7c1 2bbb 45ad c53d ad84 833d beb8 3fbd
00000180: 3766 c53d 22ed c2bb c43a 273e 0e50 bebc
00000190: 0149 febd b059 923d ffa7 c63d fea3 2abd
000001a0: 0e78 a23d c824 c5bc 3c7d 843e ca45 b3bb
000001b0: 2fb2 e73c c96e fc3d 5f9a e03d b556 893e
000001c0: 642f 823d 191e 06be 0c57 bb3e 5beb 193e
000001d0: b89e e93d 96ec 403d b11c f5bd acbd 8e3e
000001e0: fc56 bb3b 584b 40bd 90ec c2bb 4df7 1e3d
000001f0: 1fe6 06be

CNN_m123/conv2d_3/Conv2D_bias f4 [5]
1.6432736 -1.5897039 -2.4790716 0.7099015 -1.0049559
00000000: ca56 d23f 6b7b cbbf 1ca9 1ec0 1bbc 353f
00000010: 65a2 80bf

CNN_m123/conv2d_4/Conv2D/ReadVariableOp f4 [10, 5, 5, 5]
0.04235297 -0.016242208 0.078776196 -0.14185452 0.14654087 0.0015444073 -0.013533953 -0.078368336
-0.16464747 0.048343375 0.10598058 0.041941967 0.024465324 -0.22078301 -0.22804642 0.10859272
0.105545774 0.0771498 -0.1812269 -0.09385579 0.10411483 0.00031352162 0.027447838 -0.020928878
-0.17646694 0.05533301 0.04569765 -0.18105595 0.13239843 -0.17193496 0.02095158 -0.022840595
0.07931318 0.1631524 -0.06515152 -0.03336578 -0.10864374 -0.07194486 -0.08130397 0.23266867
-0.072226636 -0.00520558 -0.105875134 0.00060211855 0.0011683131 -0.07339738 -0.052601047 0.14631537
-0.009732786 0.09862136 -0.16571026 -0.16331922 0.2318642 -0.16091359 0.06511737 0.0751033
-0.03242453 0.15605056 0.0765785 0.037456274 0.12719485 0.035106845 0.15709902 0.054405868
-0.11974673 0.060733106 -0.124460466 0.04526172 0.11898219 -0.099333525 -0.045626722 -0.26947477
-0.061003927 0.08642389 -0.14580932 0.07796038 0.09606911 0.05989326 -0.051134177 0.15601163
-0.036182582 -0.18698119 -0.17304122 0.018028697 -0.06801826 -0.0074502463 -0.6464769 -0.16031545
0.055955987 0.11751399 -0.2005557 -0.2091574 -0.041675095 -0.016467562 0.18923955 -0.25355852
0.16217828 -0.16015163 -0.08477413 0.21411037 0.18581192 0.017708112 -0.03979098 -0.04951857
-0.4076196 0.1977096 0.043414406 0.07811567 -0.16358343 -0.19790258 0.123041 0.08090002
0.06456316 0.0069852266 0.147202 -0.030736802 0.13228802 -0.032252643 0.033528466 0.34371
-0.21142128 0.09678259 -0.04482976 0.014287011 0.14011762 0.05853014 -0.08423698 -0.17696217
-0.06284129 0.01737923 0.087094426 -0.015002713 -0.12194275 -0.11581422 -0.025168017 0.0060100323
0.058136832 -0.12255021 -0.015337595 0.07847949 0.17806044 -0.02801445 -0.10451377 -0.010925363
0.013520227 0.008485944 -0.07248689 -0.11937617 0.008531969 -0.14801201 0.016729495 0.094258465
-0.080281496 0.12428222 0.07867413 0.027104478 -0.08140799 -0.18277721 0.1080256 -0.135802
0.031224357 -0.06285405 -0.28737268 0.07201453 -0.11799404 0.1527623 -0.03795673 -0.02463122
0.19846867 -0.13939387 0.04157014 -0.13613756 -0.018764297 0.21878989 0.06494697 0.17666169
-0.06314775 -0.25489983 0.29630148 0.016801706 0.12397921 -0.3766336 -0.38097873 0.25046158
0.005500441 0.13758837 -0.39271426 -0.32048854 -0.07141614 -0.13610739 0.13542251 -0.17545499
-0.27966693 -0.050050803 -0.070140496 0.20927021 -0.06947337 -0.1281149 0.25618255 0.04051165
-0.23406397 -0.14328463 -0.36392713 -0.37012917 -0.08557925 -0.2832022 -0.1663743 -0.17621207
-0.25125164 -0.11538721 -0.12748428 -0.0781294 -0.14525259 -0.0742772 0.093606055 -0.23575035
-0.11922573 -0.1810707 -0.31032047 -0.13245612 -0.3739837 -0.31315523 -0.1573644 -0.3080768
-0.32465112 -0.17660443 -0.111368656 0.018443983 -0.16195178 -0.021220462 0.07845365 -0.076506644
0.03880189 -0.0078019714 0.079956554 -0.13355538 -0.10847424 -0.051166285 -0.022795308 -0.01082956
0.06948051 0.06646273 -0.04522568 -0.08047749 -0.13975148 -0.17062931 -0.0018231487 -0.14704023
-0.19280207 -0.12023875 0.21140146 0.023009604 0.1068662 0.04247789 0.31321412 -0.06826109
00000000: 4f7a 2d3d 610e 85bc 6a55 a13d 5042 11be
00000010: cf0e 163e b66d ca3a 83bd 5dbc 947f a0bd
00000020: 5999 28be b403 463d 590c d93d 57cb 2b3d
00000030: 816b c83c f114 62be 0085 69be dc65 de3d
00000040: 6228 d83d b700 9e3d 8b93 39be 7737 c0bd
00000050: 283a d53d 2960 a439 4ada e03c 0a73 abbc
00000060: c0b3 34be dea4 623d 762d 3b3d bb66 39be
00000070: 7493 073e b80f 30be a6a2 ab3c 331c bbbc
00000080: f36e a23d 6c11 273e 296e 85bd 8eaa 08bd
00000090: 9c80 debd d457 93bd b282 a6bd b240 6e3e
000000a0: 8feb 93bd 9293 aabb 10d5 d8bd 7ed7 1d3a
000000b0: 1522 993a 5e51 96bd 3274 57bd b2d3 153e
000000c0: 4376 1fbc fff9 c93d f3af 29be 273d 27be
000000d0: cf6d 6d3e 88c6 24be 415c 853d c2cf 993d
000000e0: 95cf 04bd b8cb 1f3e 30d5 9c3d c06b 193d
000000f0: 5e3f 023e 32cc 0f3d 91de 203e b0d8 5e3d
00000100: c63d f5bd 47c3 783d 21e5 febd 5a64 393d
00000110: efac f33d 606f cbbd 16e3 3abd 99f8 89be
00000120: 41df 79bd 02ff b03d 0a4f 15be b1a9 9f3d
00000130: e2bf c43d a352 753d 1272 51bd 83c1 1f3e
00000140: 3034 14bd ff77 3fbe b831 31be ebb0 933c
00000150: 284d 8bbd 3221 f4bb 837f 25bf bc29 24be
00000160: 1b32 653d 2dab f03d 795e 4dbe 5c2d 56be
00000170: 81b3 2abd fbe6 86bc 03c8 413e 6cd2 81be
00000180: 1012 263e cafe 23be 0f9e adbd c03f 5b3e
00000190: 7b45 3e3e 9a10 913c defb 22bd fcd3 4abd
000001a0: 84b3 d0be 6374 4a3e 4ed3 313d 1cfb 9f3d
000001b0: 6a82 27be f9a6 4abe ebfc fb3d e9ae a53d
000001c0: b139 843d 54e4 e43b 1fbc 163e bfcb fbbc
000001d0: 8376 073e 591b 04bd 2555 093d c2fa af3e
000001e0: d27e 58be f335 c63d 699f 37bd 1114 6a3c
000001f0: fe7a 0f3e 4dbd 6f3d 7084 acbd 9235 35be
00000200: efb2 80bd e35e 8e3c 905e b23d f0cd 75bc
00000210: 1fbd f9bd 0130 edbd 282d cebc ceef c43b
00000220: e320 6e3d 9bfb fabd 894a 7bbc dbb9 a03d
00000230: 7a55 363e 8f7e e5bc 510b d6bd 4b00 33bc
00000240: f183 5d3c a108 0b3c 0274 94bd 7e7b f4bd
00000250: acc9 0b3c 7690 17be 4b0c 893c 950a c13d
00000260: a06a a4bd ad87 fe3d e71f a13d 360a de3c
00000270: 3bb9 a6bd f329 3bbe 873c dd3d ae0f 0bbe
00000280: 39ca ff3c a0b9 80bd 8322 93be 5b7c 933d
00000290: dca6 f1bd b86d 1c3e 8478 1bbd 6ac7 c9bc
000002a0: 5f3b 4b3e 44bd 0ebe 7345 2a3d a567 0bbe
000002b0: 95b7 99bc 750a 603e eb02 853d cde6 343e
000002c0: 9c53 81bd 3b82 82be d4b4 973e bba3 893c
000002d0: d0e8 fd3d 1fd6 c0be a50f c3be 803c 803e
000002e0: 0b3d b43b f7e3 0c3e d811 c9be 1317 a4be
000002f0: a042 92bd bc5f 0bbe 33ac 0a3e 79aa 33be
00000300: 8130 8fbe 1202 4dbd d2a5 8fbd ee4a 563e
00000310: 0e48 8ebd 8d30 03be 5c2a 833e 8bef 253d
00000320: 77ae 6fbe 35b9 12be a854 babe 9281 bdbe
00000330: 2c44 afbd e1ff 90be 065e 2abe f070 34be
00000340: 0ea4 80be 2150 ecbd 3d8b 02be 4f02 a0bd
00000350: 18bd 14be a51e 98bd 88b4 bf3d 8a68 71be
00000360: 9f2c f4bd 996a 39be 53e2 9ebe 94a2 07be
00000370: cb7a bfbe e255 a0be 2224 21be 3ebc 9dbe
00000380: ac38 a6be cbd7 34be 4015 e4bd d617 973c
00000390: b0d6 25be 89d6 adbc 4fac a03d 84af 9cbd
000003a0: bbee 1e3d aea7 ffbb 43c0 a33d bec2 08be
000003b0: be27 debd bd93 51bd 3abd babc 786e 31bc
000003c0: cc4b 8e3d 9d1d 883d 903e 39bd 62d1 a4bd
000003d0: 031b 0fbe 73b9 2ebe b8f6 eeba b791 16be
000003e0: e86d 45be bc3f f6bd a079 583e a37e bc3c
000003f0: abdc da3d 4cfd 2d3d 9a5d a03e 78cc 8bbd

CNN_m123/conv2d_4/Conv2D_bias f4 [10]
1.098133 2.7372868 1.5572666 -1.3412254 -0.43422124 1.3597051 -0.7421135 0.12031581
0.030855618 -1.6902528
00000000: 9f8f 8c3f b52f 2f40 8354 c73f 46ad abbf
00000010: 3f52 debe d10a ae3f 26fb 3dbf 2368 f63d
00000020: ecc4 fc3c 345a d8bf

CNN_m123/conv2d_5/Conv2D/ReadVariableOp f4 [6, 3, 3, 10]
-0.33352995 -0.09361641 0.10565296 0.093636975 0.17831406 -0.17716493 -0.071323246 -0.29930758
0.017546011 -0.48100224 -0.025236145 -0.028562432 -0.009814368 -0.070805006 -0.08533089 -0.0066861934
0.015283124 0.03185013 -0.089010306 -0.53895706 -0.22301432 -0.00380472 0.23960444 0.21604674
0.20979425 -0.21938476 0.10650114 -0.11357376 -0.07164584 -0.37893072 0.12913878 -0.041821215
-0.014918759 0.10745804 0.12891264 -0.048149012 0.21561646 0.047738403 -0.16329333 -0.50125253
0.032763395 -0.27119985 0.0069417483 0.22269733 0.23528498 -0.038786646 0.23050927 0.035153344
-0.14417708 -0.4457933 -0.025707442 -0.24919893 -0.13463984 0.07637318 -0.0004668872 0.08109709
0.026186684 0.047760632 0.13847396 -0.3946243 -0.12741174 -0.23598379 0.16910617 -0.13005877
0.037561752 -0.037696946 0.11930634 0.103965186 0.026279537 -0.037874978 0.19346194 -0.253465
0.18644875 -0.043893985 -0.050129388 0.015862985 0.40330818 0.13651988 -0.0016298343 0.101405665
0.083317816 -0.08030088 0.13781787 -0.14294855 -0.091030784 -0.063938536 0.32321063 0.12813675
-0.18364029 -0.049710594 -0.21507892 -0.09098398 0.105930135 -0.16796617 -0.116611674 0.19586097
0.00570195 0.046721224 0.22937171 0.10671033 -0.029998496 0.0053822775 0.25943515 0.09431022
0.07140923 0.10870379 0.15247597 -0.07054068 0.048832987 0.060979936 0.105945475 0.03445165
0.12159065 0.14176361 -0.10332529 0.064902805 -0.07709932 0.14212698 0.11821486 0.17552324
0.0975337 -0.25547728 0.05771529 0.13317578 0.11497475 -0.15484108 -0.13366035 0.02586601
-0.011060212 -0.08069623 -0.06815873 -0.05748369 -0.04075774 -0.11773432 -0.16192043 -0.108540386
0.12079045 -0.033005185 0.13577339 0.05070021 -0.14486293 -0.011896112 -0.08911397 0.1763061
0.11831311 -0.1821004 -0.029169476 -0.05058543 0.1741546 0.17569143 -0.008573696 -0.4863429
-0.008542793 -0.0017293561 0.2763952 -0.20043233 -0.20015466 -0.15005726 0.11878705 -0.15121838
-0.10400553 -0.31664094 0.19384174 0.15215345 0.045225408 -0.09417931 -0.1484706 0.0839528
0.21219629 0.13909237 -0.23898822 -0.24341665 0.053827498 0.15761535 0.16932307 -0.25267133
-0.34787425 0.29083163 -0.12026783 0.094549224 0.05232062 -0.119316384 0.20549993 0.3416752
0.1473493 -0.36921808 -0.43144792 0.15682597 0.19817577 -0.30634263 -0.054618593 -0.11261828
0.20428222 0.29158553 -0.1716719 -0.20866662 -0.48490074 0.35495526 -0.23323888 -0.17088495
0.11520424 0.04538232 0.14331524 0.104569346 -0.3145342 -0.367488 -0.30578718 0.18051006
0.37997675 0.012728776 -0.07855199 0.3266354 0.019919857 0.085772574 0.16254114 0.1977967
-0.3720723 -0.28227648 -0.016465528 -0.022550711 0.16961451 0.04078725 0.31578928 -0.1315742
-0.16233148 0.16361491 -0.07614897 0.11907857 0.030813891 0.07653091 0.00063858595 0.021863654
0.08759741 0.21505927 -0.34722662 -0.20095904 -0.060277466 0.15547423 0.027831899 -0.05020421
0.029162869 0.3401907 0.14888167 -0.012529685 -0.044413157 0.12157557 0.06926018 -0.23900692
-0.2205091 0.11262665 0.21072209 0.3454966 0.060670692 -0.25491998 -0.3223987 0.16290514
00000000: 70c4 aabe f6b9 bfbd 9460 d83d bec4 bf3d
00000010: f697 363e b96a 35be ec11 92bd d83e 99be
00000020: a7bc 8f3c ed45 f6be 08bc cebc c3fb e9bc
00000030: 71cc 20bc 3702 91bd f6c1 aebd db17 dbbb
00000040: 1166 7a3c 4875 023d 094b b6bd 17f9 09bf
00000050: de5d 64be 9c58 79bb de5a 753e 5b3b 5d3e
00000060: 4ed4 563e 66a6 60be 451d da3d 5c99 e8bd
00000070: 0ebb 92bd 3503 c2be f53c 043e b94c 2bbd
00000080: d06d 74bc f612 dc3d ad01 043e e637 45bd
00000090: 90ca 5c3e 5889 433d 5e36 27be 1652 00bf
000000a0: e932 063d b5da 8abe 9b77 e33b c50a 643e
000000b0: 8cee 703e bfde 1ebd 9f0a 6c3e f4fc 0f3d
000000c0: 28a3 13be 053f e4be 6a98 d2bc 012e 7fbe
000000d0: 07df 09be 8b69 9c3d 8ac8 f4b9 3b16 a63d
000000e0: 7585 d63c a7a0 433d 1ecc 0d3e 320c cabe
000000f0: 3978 02be bca5 71be 2b2a 2d3e 202e 05be
00000100: 5ada 193d 1d68 1abd e256 f43d b3eb d43d
00000110: 2f48 d73c cb22 1bbd e31a 463e 2ac6 81be
00000120: 6cec 3e3e 2eca 33bd 7954 4dbd 17f3 813c
00000130: 697e ce3e decb 0b3e 2aa0 d5ba c6ad cf3d
00000140: 88a2 aa3d ca74 a4bd 2120 0d3e 1b61 12be
00000150: 596e babd 35f2 82bd dd7b a53e 4836 033e
00000160: 330c 3cbe 569d 4bbd a63d 5cbe cf55 babd
00000170: e6f1 d83d 53ff 2bbe 1ad2 eebd c78f 483e
00000180: 6cd7 ba3b c15e 3f3d 6be0 6a3e f28a da3d
00000190: 68bf f5bc d15d b03b afd4 843e b725 c13d
000001a0: 013f 923d 18a0 de3d a922 1c3e a277 90bd
000001b0: 1905 483d 19c6 793d f1f9 d83d 2c1d 0d3d
000001c0: 8504 f93d 7b2a 113e 369c d3bd c3eb 843d
000001d0: 40e6 9dbd bc89 113e a21a f23d 5dbc 333e
000001e0: c0bf c73d ebcd 82be de66 6c3d 3b5f 083e
000001f0: e277 eb3d a98e 1ebe 42de 08be f4e4 d33c
00000200: e435 35bc 1144 a5bd ce96 8bbd 0574 6bbd
00000210: 97f1 26bd b11e f1bd 78ce 25be 6c4a debd
00000220: fc60 f73d 7230 07bd 2e08 0b3e 06ab 4f3d
00000230: f356 14be e9e7 42bc 6381 b6bd 9689 343e
00000240: 254e f23d 8778 3abe d3f4 eebc ab32 4fbd
00000250: 9555 323e 74e8 333e b078 0cbc f001 f9be
00000260: 12f7 0bbc 90ab e2ba ac83 8d3e 223e 4dbe
00000270: 58f5 4cbe 9ca8 19be a046 f33d fed8 1abe
00000280: da00 d5bd c31e a2be 737e 463e 1dce 1b3e
00000290: 473e 393d 15e1 c0bd ad08 18be 72ef ab3d
000002a0: fc49 593e 3b6e 0e3e 54b9 74be 3742 79be
000002b0: 397a 5c3d eb65 213e 0763 2d3e 235e 81be
000002c0: 931c b2be e2e7 943e fb4e f6bd 06a3 c13d
000002d0: 254e 563d 265c f4bd 936e 523e 0df0 ae3e
000002e0: bce2 163e 270a bdbe bee6 dcbe fd96 203e
000002f0: 97ee 4a3e f1d8 9cbe bfb7 5fbd 6aa4 e6bd
00000300: 5c2f 513e b34a 953e c2ca 2fbe b4ac 55be
00000310: e944 f8be b2bc b53e 2cd6 6ebe 77fc 2ebe
00000320: 33f0 eb3d d0e2 393d 3bc1 123e 7428 d63d
00000330: a00a a1be 6327 bcbe 2390 9cbe a1d7 383e
00000340: 508c c23e 5b8c 503c dedf a0bd c13c a73e
00000350: f82e a33c 88a9 af3d 2f71 263e 388b 4a3e
00000360: 4380 bebe 8b86 90be b7e2 86bc 45bc b8bc
00000370: 6daf 2d3e 8810 273d 22af a13e 63bb 06be
00000380: 393a 26be ab8a 273e fef3 9bbd 77df f33d
00000390: 6a6d fc3c 3dbc 9c3d c766 273a 681b b33c
000003a0: 4566 b33d 7f38 5c3e b0c7 b1be 35c8 4dbe
000003b0: 81e5 76bd a334 1f3e b9ff e33c eea2 4dbd
000003c0: f8e6 ee3c 7a2d ae3e 7074 183e 4f49 4dbc
000003d0: 92ea 35bd 9dfc f83d 48d8 8d3d 3bbe 74be
000003e0: 23cd 61be cda8 e63d 88c7 573e eee4 b03e
000003f0: d581 783d df84 82be 7111 a5be 9bd0 263e

CNN_m123/conv2d_5/Conv2D_bias f4 [6]
0.29275385 -0.66059107 0.76674366 0.57077974 -0.54225326 0.35042468
00000000: d5e3 953e 7f1c 29bf 5049 443f 9f1e 123f
00000010: 1cd1 0abf dd6a b33e
