models/model_quant_8b_full.tflite (tflite, 5856 bytes, 3 tensors)

CNN_m123/conv2d_3/Conv2D/ReadVariableOp i1 [1, 5, 5, 5]
000000 f1 96 41 5c 29 c8 a2 d4 f0 0d c5 91 81 0a f8 46
       -15 -106 65 92 41 -56 -94 -44 -16 13 -59 -111 -127 10 -8 70
000010 b3 b0 34 03 00 d1 bb cf df b2 47 2f 0c e8 0d f5
       -77 -80 52 3 0 -47 -69 -49 -33 -78 71 47 12 -24 13 -11
000020 23 ef 2a 7f cb 02 fb 20 65 05 de ab d5 e1 84 29
       35 -17 42 127 -53 2 -5 32 101 5 -34 -85 -43 -31 -124 41
000030 06 d1 fa ff 36 85 6c b1 fc 1c f5 65 be 0d 38 e5
       6 -47 -6 -1 54 -123 108 -79 -4 28 -11 101 -66 13 56 -27
000040 07 a2 eb 22 b0 e3 51 0d 04 f0 31 c0 69 d9 11 45
       7 -94 -21 34 -80 -29 81 13 4 -16 49 -64 105 -39 17 69
000050 f6 49 ec 1a 67 ae 32 c2 7f 4c ae 49 ff 2f 16 eb
       -10 73 -20 26 103 -82 50 -62 127 76 -82 73 -1 47 22 -21
000060 2e fd 4f f8 c7 22 2c ec 1c f5 7b fe 0e 2b 32 7f
       46 -3 79 -8 -57 34 44 -20 28 -11 123 -2 14 43 50 127
000070 1d c1 7f 44 36 15 c6 61 03 ea fd 13 d2
       29 -63 127 68 54 21 -58 97 3 -22 -3 19 -46

CNN_m123/conv2d_4/Conv2D/ReadVariableOp i1 [10, 5, 5, 5]
000000 08 fd 0f e4 1d 00 fd f1 e0 09 15 08 05 d5 d3 15
       8 -3 15 -28 29 0 -3 -15 -32 9 21 8 5 -43 -45 21
000010 15 0f dc ee 14 00 05 fc dd 0b 09 dc 1a de 04 fc
       21 15 -36 -18 20 0 5 -4 -35 11 9 -36 26 -34 4 -4
000020 10 20 f3 f9 eb f2 f0 2e f2 ff eb 00 00 f2 f6 1d
       16 32 -13 -7 -21 -14 -16 46 -14 -1 -21 0 0 -14 -10 29
000030 fe 13 df e0 2e e0 0d 0f fa 1f 0f 07 19 07 1f 0b
       -2 19 -33 -32 46 -32 13 15 -6 31 15 7 25 7 31 11
000040 e8 0c e8 09 17 ec f7 cb f4 11 e3 0f 13 0c f6 1f
       -24 12 -24 9 23 -20 -9 -53 -12 17 -29 15 19 12 -10 31
000050 f9 db de 04 f3 ff 81 e1 0b 17 d9 d7 f8 fd 25 ce
       -7 -37 -34 4 -13 -1 -127 -31 11 23 -39 -41 -8 -3 37 -50
000060 20 e1 ef 2a 25 03 f8 f6 b0 27 09 0f e0 d9 18 10
       32 -31 -17 42 37 3 -8 -10 -80 39 9 15 -32 -39 24 16
000070 0d 01 1d fa 1a fa 07 44 d6 13 f7 03 1c 13 e5 c7
       13 1 29 -6 26 -6 7 68 -42 19 -9 3 28 19 -27 -57
000080 ec 06 1c fb d9 db f8 02 13 d8 fb 19 3a f7 de fc
       -20 6 28 -5 -39 -37 -8 2 19 -40 -5 25 58 -9 -34 -4
000090 04 03 e9 d9 03 d0 05 1e e6 28 19 09 e6 c5 23 d4
       4 3 -23 -39 3 -48 5 30 -26 40 25 9 -26 -59 35 -44
0000a0 0a ec a3 17 da 31 f4 f8 40 d3 0d d4 fa 47 15 39
       10 -20 -93 23 -38 49 -12 -8 64 -45 13 -44 -6 71 21 57
0000b0 ec ae 60 05 28 86 85 51 02 2c 81 98 e9 d4 2c c7
       -20 -82 96 5 40 -122 -123 81 2 44 -127 -104 -23 -44 44 -57
0000c0 a6 f0 e9 44 ea d7 53 0d b4 d2 8a 88 e4 a4 ca c7
       -90 -16 -23 68 -22 -41 83 13 -76 -46 -118 -120 -28 -92 -54 -57
0000d0 af db d7 e7 d1 e8 1e b4 d9 c5 9c d5 87 9b cd 9c
       -81 -37 -41 -25 -47 -24 30 -76 -39 -59 -100 -43 -121 -101 -51 -100
0000e0 97 c7 dc 06 cc f9 19 e7 0d fd 1a d5 dd ef f9 fc
       -105 -57 -36 6 -52 -7 25 -25 13 -3 26 -43 -35 -17 -7 -4
0000f0 16 15 f1 e6 d3 c9 ff d0 c2 d9 43 07 22 0e 64 ea
       22 21 -15 -26 -45 -55 -1 -48 -62 -39 67 7 34 14 100 -22

CNN_m123/conv2d_5/Conv2D/ReadVariableOp i1 [6, 3, 3, 10]
000000 b1 ea 19 16 2a d6 ef b9 04 8f fa f9 fe ef ec fe
       -79 -22 25 22 42 -42 -17 -71 4 -113 -6 -7 -2 -17 -20 -2
000010 04 08 eb 81 cb ff 38 33 31 cc 19 e5 ef a7 1e f6
       4 8 -21 -127 -53 -1 56 51 49 -52 25 -27 -17 -89 30 -10
000020 fc 19 1e f5 33 0b da 8a 08 c0 02 34 37 f7 36 08
       -4 25 30 -11 51 11 -38 -118 8 -64 2 52 55 -9 54 8
000030 de 97 fa c5 e0 12 00 13 06 0b 21 a3 e2 c8 28 e1
       -34 -105 -6 -59 -32 18 0 19 6 11 33 -93 -30 -56 40 -31
000040 09 f7 1c 18 06 f7 2e c4 2c f6 f4 04 5f 20 00 18
       9 -9 28 24 6 -9 46 -60 44 -10 -12 4 95 32 0 24
000050 14 ed 20 de eb f1 4c 1e d5 f4 c8 e8 1c d4 e2 33
       20 -19 32 -34 -21 -15 76 30 -43 -12 -56 -24 28 -44 -30 51
000060 01 0c 3c 1c f8 01 44 19 13 1c 28 ee 0d 10 1c 09
       1 12 60 28 -8 1 68 25 19 28 40 -18 13 16 28 9
000070 20 25 e5 11 ec 25 1f 2e 19 bd 0f 23 1e d8 dd 07
       32 37 -27 17 -20 37 31 46 25 -67 15 35 30 -40 -35 7
000080 fd eb ee f1 f5 e1 d6 e4 20 f7 23 0d da fd e9 2e
       -3 -21 -18 -15 -11 -31 -42 -28 32 -9 35 13 -38 -3 -23 46
000090 1f d0 f8 f3 2d 2e fe 81 fe 00 48 cc cc d9 1f d9
       31 -48 -8 -13 45 46 -2 -127 -2 0 72 -52 -52 -39 31 -39
0000a0 e5 ad 33 28 0c e7 d9 16 37 24 c2 c0 0e 29 2c be
       -27 -83 51 40 12 -25 -39 22 55 36 -62 -64 14 41 44 -66
0000b0 a5 4c e1 19 0e e1 36 59 27 9f 8f 29 34 b0 f2 e3
       -91 76 -31 25 14 -31 54 89 39 -97 -113 41 52 -80 -14 -29
0000c0 36 4c d3 c9 81 5d c3 d3 1e 0c 26 1b ae a0 b0 2f
       54 76 -45 -55 -127 93 -61 -45 30 12 38 27 -82 -96 -80 47
0000d0 64 03 eb 56 05 16 2b 34 9f b6 fc fa 2c 0b 53 de
       100 3 -21 86 5 22 43 52 -97 -74 -4 -6 44 11 83 -34
0000e0 d5 2b ec 1f 08 14 00 06 17 38 a5 cb f0 29 07 f3
       -43 43 -20 31 8 20 0 6 23 56 -91 -53 -16 41 7 -13
0000f0 08 59 27 fd f4 20 12 c1 c6 1d 37 5a 10 bd ac 2b
       8 89 39 -3 -12 32 18 -63 -58 29 55 90 16 -67 -84 43
