models/MyModel.pth (torch, 9991 bytes, 6 tensors)

conv1.weight f4 [5, 1, 5, 5]
00000000: 4c96 133d 2357 ad3c 8b05 ef3d 2db8 cdbd
00000010: ad6e 203e 368a a23e 9574 883e 4f95 903e
00000020: eeea 253e 307e aa3e 29ae d83d 1107 573e
00000030: 535a 6e3d 8d19 243e b213 ef3c 5149 17be
00000040: 1ea3 9c3d 8691 d1bc ea5a b23d 2ac4 3f3d
00000050: b1a7 df3c c2c2 e23d 3abd 343e 1fd1 c13c
00000060: 087b f0bd 98b7 40be 1753 91be 8558 abbe
00000070: 3203 26be 6f2b 92be 98ed 2ebe 72f4 62be
00000080: 5aab 62be 34eb 5fbe 38b7 863c dcaa 22be
00000090: 2305 f9bd 6888 3abe b3f9 50be 0304 24bd
000000a0: 8192 c9bc b444 1d3e e8f4 0cbd c75c 5a3e
000000b0: 63d9 553d 389b 1d3e 9a0c a2bd f62f 1fbd
000000c0: 8353 473e 2c1d 343e dae6 0f3e de43 893d
000000d0: 079d be3d 519e 45bd b986 623e 3ea8 40be
000000e0: 1a5a 7fbd 5eb9 123e b29a a13d ed92 75be
000000f0: 955b 663d c637 0abe 89fd a1be c206 6dbe
00000100: e21c 8cbd ea42 763e 6f14 1dbd 15fe a03e
00000110: ec4b 133e 04a2 e83d df49 f1bc 19c4 3fbe
00000120: a851 83bd e16e 193e af23 733d 6252 393e
00000130: c90f 7c3e 934b 993e 8092 e03d 468d 263e
00000140: 0b0a 343e 997b db3d f678 683e 5851 743d
00000150: 9552 11bd 62b9 893d 8f39 9e3e 6e88 783e
00000160: 6a6f 01bd 64e6 1a3e 2416 ec3d 0469 0b3e
00000170: 5039 d23d 3d65 27bd 447b 243e 91e8 f6bc
00000180: dcc2 32be 8dc1 09be 7aa8 673c ff92 00be
00000190: 0876 59bd 1161 4aba dfb0 2e3e ef7e 05bd
000001a0: 21b0 9fbd 7328 6d3c 7cb5 be3d 9b29 b13c
000001b0: 84ed 0cbe 0c0a 85bd 3ba5 90bd 3436 2f3e
000001c0: d055 9f3d 9f4b 403e 9234 c53c 3ee5 bebd
000001d0: 58d1 5ebe 6c11 1cbe e433 b5bd 4941 71be
000001e0: ce52 e8be a84e b8bd 92d2 a3be a371 b0be
000001f0: 0ca8 dcbe
0.036032006 0.021159714 0.11670979 -0.10044894 0.1566722 0.31746072 0.26651445 0.28238913
0.162029 0.33299398 0.105800934 0.2099879 0.05819161 0.16025372 0.029184196 -0.14774062
0.076483 -0.025582086 0.08708747 0.046817936 0.027301641 0.11072303 0.17650309 0.023659287
-0.11742216 -0.18820035 -0.28383705 -0.33465973 -0.16212156 -0.28548762 -0.17082822 -0.22163561
-0.22135678 -0.21867067 0.016444787 -0.1588549 -0.12159183 -0.18216097 -0.20407753 -0.04004289
-0.024605991 0.1535824 -0.03441325 0.21324454 0.05220927 0.15391243 -0.0791256 -0.0388641
0.19465451 0.17589253 0.14052907 0.06702398 0.09307294 -0.048246685 0.22121705 -0.1881418
-0.062341787 0.14328524 0.07890834 -0.23981829 0.056239683 -0.13497838 -0.31638744 -0.23147109
-0.068414465 0.24048963 -0.038349565 0.3144385 0.1438443 0.11359027 -0.02945417 -0.18727149
-0.06412059 0.14983703 0.059360202 0.18097833 0.24615397 0.2994047 0.10965443 0.16264829
0.17581956 0.10716934 0.22702393 0.059647888 -0.035479147 0.06724812 0.3090329 0.24270794
-0.031600393 0.1512695 0.115276605 0.13614279 0.10264838 -0.040868033 0.16062647 -0.030140193
-0.17457145 -0.1345274 0.014139289 -0.12556075 -0.05309108 -0.00077201525 0.17059658 -0.032591756
-0.07797266 0.014474976 0.09311959 0.021626284 -0.1376248 -0.06496057 -0.07062765 0.1711052
0.07780039 0.18778847 0.024072919 -0.09321068 -0.21759546 -0.15241021 -0.08847788 -0.2356006
-0.45375675 -0.089993775 -0.3199659 -0.34461698 -0.4309696

conv1.bias f4 [5]
00000000: 8948 013e f56b 00be ccfa 90bc 1cbb 3cbd
00000010: c0fa 543e
0.12625326 -0.12541182 -0.017697714 -0.04607688 0.20798779

conv2.weight f4 [10, 5, 5, 5]
00000000: 2aea e53b c6dd 743d 8f64 883d 8a14 acbc
00000010: 301a 68bd 37f4 ff3b 216d b2bc 1068 413d
00000020: 70e4 e8bd 356f 30bd b2c6 553d 6390 c23d
00000030: cd2f ffbc f823 cdbd 6b85 6abd 2023 823c
00000040: edbb 77bb 7de3 373b da8b 8b3d d400 963c
00000050: 02a4 1d3e 8754 963d badc 583c f17d 2d3d
00000060: 77a6 193d a967 98bd 2c66 08be a09b ddbd
00000070: 8a97 4d3d 9e97 823c da79 683d c3dd 493d
00000080: 32bd 813a 0118 863d 7698 dbbb 1706 ecbd
00000090: a096 8a3c 90ec abbd 64a7 193d e02b 50bd
000000a0: 40e9 9dbd 6431 dabd 4c3f 833c b86d 38bd
000000b0: c08e 4e3c 7318 06bc 8906 9e3d 2a61 a93d
000000c0: 9186 ac3d 4a13 3b3d 78c2 a7bd 2a47 84bd
000000d0: acad 31bd 5f5a d03b 6ad2 0a3c 7bba 813d
000000e0: c4bc 233d 05b6 65bc 71e7 383d b90d 0c3e
000000f0: c45b 10bb 48d5 cebc 06ac 1cbd d227 f0bd
00000100: db68 14be 4797 723c 3bf4 223d e9e9 14bb
00000110: f553 babc 236e 8fbb 7d67 90bd a6e7 b1bc
00000120: 5474 8bbd 31ce 13bd 3f2d c7bd 8247 c539
00000130: 7b23 e63b 73d4 4abb 6a33 573c 9be9 ddbd
00000140: a1c9 45bd bb0d d3bd 369f c53b daa3 ac3b
00000150: bb0c 8c3d 0244 afbd 3428 84bd eb2d b3bc
00000160: ae33 b9bc a3d8 063c 4268 a1bc 5af6 51bd
00000170: e2b7 82bc ce95 09bd 94aa 1fbd 6400 1d3e
00000180: 742c 023e 3f42 0a3d 13e5 333d 0471 383d
00000190: 3be9 273c 16f6 ffbc d409 92bd 0fbb 6c3d
000001a0: 9810 d8bd 3e20 823d b902 4a3d 0fa5 83bd
000001b0: e6d4 703d 9875 073e 3b07 923c c42e 93bd
000001c0: f087 fbbc 9137 9bbc e9a1 c7bd ac2e fb3c
000001d0: 6942 b4bc 9cd6 1b3c 01fc 343d de99 003e
000001e0: 84d2 cb3c a621 303d a7f9 1c3d 5ce7 1f3c
000001f0: b45a 363d a70a 9bbc a76e 47bd d440 0bbd
00000200: 3f5e 72bd 527a c13d cd99 94bd 3560 d7bd
00000210: 88fe 7cbc 9dd6 cfbd 8cf4 3b3a 87ee 6ebd
00000220: 1a65 7a3d d2ab 84bc d06d 3fba 5040 a9bc
00000230: 299b afbd b7f8 193c bcac d4bd cc12 a8bd
00000240: 3901 99bc 9c66 4dbd ede0 05bc a466 83bd
00000250: e348 2dbc ba0c 59bd d03d 073c 6778 0a3d
00000260: a8aa 7f3c dde2 6d3c e99a 84bd 64e4 12bd
00000270: e9f9 393d 6c59 873c 7756 68bb 6580 91bd
00000280: d155 083c 93bd afbd 85a6 e8bd 2ed6 a13c
00000290: 05ae 96bd 3a59 45bd c8be 023c 37e1 bbbc
000002a0: a60c d4bd d65e a3bd a4ef 28bd 20d6 10bd
000002b0: 98f4 af3d 36fd a63d 5ea6 053e 99f1 453d
000002c0: ffb0 863a 3558 5c3d 5378 9ebd 598e 8abc
000002d0: 8949 e9bd 311e 01be ba28 7fbd 3340 eabc
000002e0: 7fea af3c 11d6 573d b507 2c3d ab87 9bbd
000002f0: 1928 483d a174 f83c 9f9e 1b3d 3561 a2bd
00000300: c045 3dbb 9e23 a0bd b2c5 3c3d db08 ad3c
00000310: 5f17 3d3a de20 86bd 56be 7dbc fa20 6abb
00000320: 5afb 9dbd aa51 183d 2d59 c53c ed99 963d
00000330: 7b04 98bc 1fb5 c3bc 5a84 e2bd 7da1 76bc
00000340: 41d0 523c f6d8 4b3d 53ad 4d3d ebc9 263d
00000350: ad7c a8bd 7533 813c 30c0 c23c 4c02 2ebc
00000360: b7d2 a63c fcf4 023d dd38 2fbd bae7 65bd
00000370: 3e0c 39bc 0a6f 8abd 6d91 873d c8a2 6abb
00000380: 7142 bdbd a44d d8bd 841c b53c 3007 283d
00000390: 4483 d63d 3ae8 283d cdcf e33d 8ed7 04bd
000003a0: 2c07 e03d b227 be3d 0278 9b3d 8f75 0c3e
000003b0: d7fa b2b9 7a39 693d 6f64 2cbd 6bca a4bd
000003c0: da62 c53c 0677 e8bd 2da0 4abd 5b55 153d
000003d0: 743c 973d ea81 a73d 3f49 943d 561f 983d
000003e0: cab0 113e 645f 1d3e cfd3 cfbd 506c 99bc
000003f0: 58f7 893c 8b6a a7bc bd27 973c dfe6 23bd
0.00701644 0.059781812 0.06659805 -0.021005888 -0.0566656 0.007811095 -0.021780552 0.047218382
-0.11371696 -0.043074805 0.052191444 0.09500196 -0.031150723 -0.10016626 -0.057256144 0.01588589
-0.0037801221 0.0028059178 0.06813784 0.018310942 0.15394595 0.07340341 0.013236219 0.042356435
0.03751227 -0.074416466 -0.13320225 -0.10820699 0.050193347 0.015941437 0.05675683 0.049283754
0.0009898304 0.06547547 -0.0067015244 -0.11524599 0.016917527 -0.0839473 0.03751315 -0.050823092
-0.077105045 -0.10653952 0.016021393 -0.04502651 0.012607276 -0.00818454 0.0771609 0.08270486
0.08424104 0.045672692 -0.08191389 -0.06458886 -0.043378517 0.0063584293 0.008473018 0.063343965
0.039974943 -0.014020448 0.045142595 0.1367711 -0.0022027353 -0.025248185 -0.03824999 -0.11726345
-0.14493124 0.014806575 0.039783698 -0.002272243 -0.022745112 -0.004377143 -0.07050989 -0.021716904
-0.06809297 -0.03608531 -0.09725427 0.00037628046 0.0070232726 -0.0030949384 0.013134817 -0.10835572
-0.04828799 -0.10305353 0.0060309423 0.005268556 0.06838366 -0.08557893 -0.06452981 -0.021872481
-0.02260765 0.008230361 -0.019703034 -0.05126033 -0.015956823 -0.03359013 -0.038981035 0.1533218
0.1271227 0.033754583 0.043919634 0.045029655 0.010248478 -0.031245273 -0.07130781 0.05779558
-0.1055004 0.06353806 0.049319003 -0.06427967 0.058796786 0.13228452 0.017825713 -0.07186654
-0.030704468 -0.018947395 -0.09747679 0.030661903 -0.022004323 0.009511616 0.044185642 0.12558696
0.024880655 0.04300084 0.038324025 0.00975975 0.044520095 -0.018925978 -0.04868951 -0.03399737
-0.05917191 0.09447159 -0.07255898 -0.10516397 -0.015441544 -0.10148356 0.0007169924 -0.058332946
0.061131574 -0.016195212 -0.0007302435 -0.02066055 -0.08574516 0.009397677 -0.10384509 -0.0820671
-0.01867734 -0.050146684 -0.008171302 -0.064160615 -0.01057646 -0.052990653 0.008254483 0.03380623
0.015604652 0.01451942 -0.06474859 -0.03586234 0.04540435 0.016522132 -0.0035451928 -0.071045674
0.0083212415 -0.0858108 -0.11359886 0.01975545 -0.0735741 -0.048180796 0.007980056 -0.02293454
-0.10353975 -0.07977073 -0.041244164 -0.035360456 0.085915744 0.08153765 0.13051745 0.04832611
0.0010276138 0.05379506 -0.07737794 -0.01691358 -0.11390979 -0.12609173 -0.0622947 -0.028595066
0.021474121 0.052694384 0.041999537 -0.07594236 0.048866365 0.03032905 0.03799307 -0.07928697
-0.0028880686 -0.078192934 0.046086974 0.021122387 0.00072132604 -0.06549238 -0.015487274 -0.0035725222
-0.07713957 0.037187256 0.024090374 0.07353578 -0.018556824 -0.023890076 -0.110604 -0.01505315
0.012867034 0.049767457 0.050214123 0.040719908 -0.08226905 0.015771607 0.023773283 -0.010620665
0.020364149 0.031971917 -0.04277884 -0.056129195 -0.011294423 -0.0675946 0.06619535 -0.0035802592
-0.09241188 -0.10561684 0.022108324 0.04102248 0.10474256 0.041237094 0.11123619 -0.03243213
0.10938868 0.09284915 0.07591249 0.1371672 -0.00034137696 0.05693958 -0.04208797 -0.08046421
0.024094988 -0.11350827 -0.04946916 0.036458354 0.073845774 0.08179076 0.07240533 0.07427852
0.14227596 0.1536842 -0.10147821 -0.018728405 0.016841576 -0.020436546 0.018451566 -0.040015098

conv2.bias f4 [10]
00000000: 55cd a2bd 82c5 94bd 5923 aabd ce66 9a3d
00000010: 7322 2eba d136 d53d ad51 283d f406 f13d
00000020: ce32 02be 092d 903d
-0.0794932 -0.07264234 -0.08307523 0.0753914 -0.00066427066 0.10410846 0.041093517 0.11768904
-0.12714693 0.0703984

features.weight f4 [6, 10, 3, 3]
00000000: 615c a8bb 165e 9f3d 9277 5d3c ac8b 843d
00000010: 936c a43d 1e72 82bd 8405 4fba b67e 123c
00000020: e130 0abd 3a3a 0c3c a4ef 8d3d 8590 10bd
00000030: 0acb d2bc e804 8f3d 14b0 26bc 56af a83c
00000040: 6bc7 a7bd 225b 8cbd acc9 6abc d702 553d
00000050: 35b7 cfbd 3766 20bd 2620 c03d e0aa 7a3d
00000060: e624 e63d 7868 523c 90ff 373d 1a59 2dbd
00000070: e599 9f3b b548 583c 72ff 653c f78f 663d
00000080: 44fd 023d 87b8 223e fe9c cc3d c21b 2f3d
00000090: dc5a 83bd cef3 8c3d 9802 89bd f5ca 043e
000000a0: ac6d 353e abe6 0c3e c028 023e 0ab6 0b3e
000000b0: 9261 18bd 3a57 abbc 8c20 37be f822 37be
000000c0: 1a41 373d 5e11 bbbd e3d3 463d 8e29 d43d
000000d0: 4b6a f53d 2301 0c3e 38d3 09bd e144 f63d
000000e0: 964c 853d c33c c53d 97a5 cf3c f8a8 fd3d
000000f0: 0bf5 77bb 1dc6 9ebd 5188 563c 238d 073e
00000100: aa9a ec3d a6d1 f23a 2589 f5bd 4eef b6bd
00000110: 791d 2bbe f274 0abe 7726 05be be0d 07be
00000120: 6062 b93d e6bc 0e3e 3b0d 69bd ff27 d83d
00000130: 133f 0f3e e1bd 3bbc bf2a a93d fa7a dd3d
00000140: c194 cd3c 6dcd 7bbd becc 23bd 66b1 d63d
00000150: c71d e53d 70e8 063e 4ef6 0dbd d4df 81bd
00000160: 3de0 e8bb b0a4 a0bd dca5 b13d d124 55bd
00000170: 3205 c63d 4dd6 a8bd b754 b4bd c50b d6bd
00000180: a2ea 54bd ef52 9dbd 531d 2cbc 3f3f 843b
00000190: 69f8 eabc 2317 353d c7b2 c9bd a660 b63c
000001a0: a9d9 1d3d 9086 e73c a071 febc 0a9e 413d
000001b0: ac63 1e3d 191d c03d d7b4 57bb eb25 193e
000001c0: d34d 2c3e 7e99 bd3c eb4a 69bb 9386 0cbc
000001d0: 9818 333d 1cf2 08bc 0815 2c3d b554 c33c
000001e0: 38da d03d a9d4 3a3b 577c cb3d b82c cf3d
000001f0: 337e d23c f7f9 87bc 439e 58bd 2963 963d
00000200: f407 523c bc09 1c3c ec13 4fbd b0d6 f63a
00000210: 7af2 923c 6185 7c3d 8c0c 27bb b785 bebc
00000220: 1924 a83d 3721 06bd 5d97 113e 0cc3 e53d
00000230: a4ca 9e3c 219a 0ebd 0215 dc3c 8c98 033d
00000240: 8fa7 10be dde7 d4bd e532 1bbe 2f82 e5bc
00000250: 3f23 cbbb 563f 723d d092 953d 5646 e03d
00000260: 08e4 023e 0365 c23d 7866 833d 02da 59bd
00000270: 2879 a0bd 92c1 a83c ae9f b7bb 2ec7 01be
00000280: f1c6 b93c 02ab dfbd c622 04bd 35f2 853d
00000290: 9981 743d af2c 843b 8193 52bd b3e3 ae3d
000002a0: d693 82bd 7af2 7cbd e253 32bc b4e1 11bd
000002b0: 4151 d13d 0eb3 cdbc 8347 af3d a451 893d
000002c0: 9a81 623d ad4c 943d e2be d0bd f76c 9ebd
000002d0: e910 093e 9293 c03d 0228 5cbd f6df 343d
000002e0: 45cc e43b d581 f13d 39d0 3a3d d0ba 433d
000002f0: afc0 a33a 673d 45be 9bd1 35be d7d8 1abe
00000300: bbfe 563b 7f39 7fbd 7da9 1fbe ed8b b63d
00000310: 959e aa3d 3277 dd3d f5fe 67bd cb4c a03d
00000320: 1cac 243d decd 73bd 4640 793d 4c75 d23d
00000330: 17f5 7c3b 396e d5bd 40ff aa3c 2334 5a3e
00000340: 0e6e 6c3e 1ef3 813d a6e2 5b3d 3b94 363e
00000350: 8ea3 203e adcd 0bbd 7956 c3bd 60bf f0bd
00000360: 6fa6 80bd f652 7ebd 7488 b73b 9504 ffbd
00000370: ce94 4cbe 9b17 bfbd db95 33be 72a1 7aba
00000380: 4a03 10bd c337 2d3d 86e6 243d 5d39 09bd
00000390: 0865 a1bd f9f4 21bd bdc5 dcbd d97b 133d
000003a0: 614f 233d 801f f53b 32ba 473d 0270 ca3d
000003b0: 38ef 133d 3afb a83d 8d72 633d 22fb 063d
000003c0: 1e00 8ebd a950 babd 8cc9 b6bd 79e6 3ebe
000003d0: d96b 5abe 092e 0bbe 8f54 653c d281 ac3d
000003e0: e870 b0bd 944c 293e 1278 093e b959 553e
000003f0: 5067 11be c723 05be 109e 1cbe e294 1abe
-0.0051379655 0.07781617 0.013517277 0.06471953 0.080285214 -0.063694224 -0.0007897245 0.008941343
-0.03373802 0.008558804 0.069304734 -0.035294075 -0.025731582 0.06983358 -0.010173816 0.02059142
-0.08192333 -0.0685332 -0.014330309 0.05200466 -0.10142366 -0.03915998 0.09381132 0.061198115
0.112375066 0.01284229 0.044921458 -0.042321302 0.0048706406 0.013200928 0.014037954 0.05628964
0.031979814 0.15890704 0.099908814 0.04275108 -0.064138144 0.068824396 -0.06689948 0.12968047
0.17717618 0.13759868 0.12710857 0.13643661 -0.037202425 -0.020915616 -0.1788351 -0.17884433
0.04473982 -0.09134172 0.048541915 0.103594884 0.119831644 0.13672309 -0.0336487 0.12024856
0.06508748 0.0963073 0.025347514 0.12385744 -0.0037835266 -0.07752631 0.013094024 0.13237433
0.11552937 0.0018525615 -0.11989049 -0.089323625 -0.16710462 -0.13521174 -0.13002954 -0.13188836
0.09051967 0.13939247 -0.056897383 0.10554504 0.13988905 -0.011458845 0.08260106 0.108144715
0.025095345 -0.061475206 -0.03999018 0.10483055 0.1118732 0.13174605 -0.034658723 -0.0634152
-0.0071068094 -0.07843912 0.08674213 -0.052037064 0.0966896 -0.08244 -0.088052206 -0.104514636
-0.051981576 -0.07681834 -0.010505038 0.00403586 -0.028682904 0.044211518 -0.09848552 0.022262882
0.038537655 0.028262407 -0.03106004 0.04726986 0.038669273 0.0938055 -0.0032914185 0.14955871
0.16826563 0.02314448 -0.0035597633 -0.008577007 0.043724626 -0.008358505 0.042012244 0.023844102
0.10197872 0.0028508103 0.09935825 0.10115951 0.025694942 -0.016598685 -0.052885305 0.07343132
0.012819279 0.009523805 -0.05055611 0.0018832292 0.017937887 0.061650638 -0.0025489656 -0.02325712
0.0821001 -0.03274652 0.14217897 0.11218843 0.019383736 -0.034814958 0.026865486 0.032127902
-0.14126419 -0.10395787 -0.15156133 -0.028016178 -0.00619927 0.059142433 0.07303393 0.109509155
0.127823 0.09491923 0.06416029 -0.053186424 -0.07835609 0.020600114 -0.005603752 -0.12673637
0.02267787 -0.10921289 -0.032259725 0.06540338 0.059693906 0.004033647 -0.051410202 0.08539524
-0.06375854 -0.06175468 -0.010884257 -0.035615638 0.10220576 -0.025109794 0.08558562 0.06705025
0.05529938 0.07241187 -0.10192658 -0.07735627 0.13385357 0.09403147 -0.053749092 0.0441589
0.0069823586 0.117923416 0.045608733 0.04778558 0.0012493337 -0.19261704 -0.1775574 -0.1512178
0.003280564 -0.062310692 -0.15591998 0.089134075 0.08331028 0.1081375 -0.05663963 0.07827147
0.0402032 -0.059522502 0.06085231 0.10276279 0.0038598233 -0.10421414 0.020873666 0.21308951
0.23088858 0.06345199 0.053682946 0.17829983 0.15687391 -0.034131695 -0.09537978 -0.11755252
-0.06281745 -0.062090836 0.0056009833 -0.12452046 -0.1997864 -0.09330674 -0.17537634 -0.00095608004
-0.035159387 0.042289507 0.040258907 -0.03350197 -0.07880598 -0.039540265 -0.10779903 0.036006782
0.039870623 0.0074805617 0.048761554 0.09884645 0.03611681 0.08251043 0.055529166 0.032954343
-0.06933616 -0.09097416 -0.08925161 -0.18642606 -0.21330203 -0.1359178 0.013997211 0.08423199
-0.08615285 0.16533118 0.1342471 0.20835008 -0.14199567 -0.13001929 -0.15294671 -0.15095857

features.bias f4 [6]
00000000: e811 1fbd ab85 24be 3ff4 ba3d 1a0b 18bd
00000010: 8d92 e1bd 34c5 6e3d
-0.038835436 -0.16066615 0.091286175 -0.037119962 -0.110142805 0.058293536
